{"format": "graph-model", "generatedBy": "2.19.0", "convertedBy": "TensorFlow.js Converter v4.22.0", "signature": {"inputs": {"input_2": {"name": "input_2:0", "dtype": "DT_FLOAT", "tensorShape": {"dim": [{"size": "-1"}, {"size": "224"}, {"size": "224"}, {"size": "3"}]}}}, "outputs": {"dense": {"name": "Identity:0", "dtype": "DT_FLOAT", "tensorShape": {"dim": [{"size": "-1"}, {"size": "1"}]}}}}, "modelTopology": {"node": [{"name": "StatefulPartitionedCall/model/MobilenetV3small/tf.math.multiply_26/Mul/y", "op": "Const", "attr": {"value": {"tensor": {"dtype": "DT_FLOAT", "tensorShape": {}}}, "dtype": {"type": "DT_FLOAT"}}}, {"name": "StatefulPartitionedCall/model/MobilenetV3small/tf.math.multiply_25/Mul/y", "op": "Const", "attr": {"value": {"tensor": {"dtype": "DT_FLOAT", "tensorShape": {}}}, "dtype": {"type": "DT_FLOAT"}}}, {"name": "StatefulPartitionedCall/model/MobilenetV3small/expanded_conv_10/squeeze_excite/AvgPool/Mean/reduction_indices", "op": "Const", "attr": {"value": {"tensor": {"dtype": "DT_INT32", "tensorShape": {"dim": [{"size": "2"}]}}}, "dtype": {"type": "DT_INT32"}}}, {"name": "StatefulPartitionedCall/model/MobilenetV3small/expanded_conv_10/squeeze_excite/Conv/Conv2D/ReadVariableOp", "op": "Const", "attr": {"value": {"tensor": {"dtype": "DT_FLOAT", "tensorShape": {"dim": [{"size": "1"}, {"size": "1"}, {"size": "576"}, {"size": "144"}]}}}, "dtype": {"type": "DT_FLOAT"}}}, {"name": "StatefulPartitionedCall/model/MobilenetV3small/expanded_conv_10/squeeze_excite/Conv/BiasAdd/ReadVariableOp", "op": "Const", "attr": {"value": {"tensor": {"dtype": "DT_FLOAT", "tensorShape": {"dim": [{"size": "144"}]}}}, "dtype": {"type": "DT_FLOAT"}}}, {"name": "StatefulPartitionedCall/model/MobilenetV3small/expanded_conv_10/squeeze_excite/Conv_1/Conv2D/ReadVariableOp", "op": "Const", "attr": {"value": {"tensor": {"dtype": "DT_FLOAT", "tensorShape": {"dim": [{"size": "1"}, {"size": "1"}, {"size": "144"}, {"size": "576"}]}}}, "dtype": {"type": "DT_FLOAT"}}}, {"name": "StatefulPartitionedCall/model/MobilenetV3small/expanded_conv_10/squeeze_excite/Conv_1/BiasAdd/ReadVariableOp", "op": "Const", "attr": {"value": {"tensor": {"dtype": "DT_FLOAT", "tensorShape": {"dim": [{"size": "576"}]}}}, "dtype": {"type": "DT_FLOAT"}}}, {"name": "StatefulPartitionedCall/model/MobilenetV3small/tf.__operators__.add_25/y", "op": "Const", "attr": {"value": {"tensor": {"dtype": "DT_FLOAT", "tensorShape": {}}}, "dtype": {"type": "DT_FLOAT"}}}, {"name": "StatefulPartitionedCall/model/MobilenetV3small/tf.math.multiply_24/Mul/y", "op": "Const", "attr": {"value": {"tensor": {"dtype": "DT_FLOAT", "tensorShape": {}}}, "dtype": {"type": "DT_FLOAT"}}}, {"name": "StatefulPartitionedCall/model/MobilenetV3small/tf.math.multiply_23/Mul/y", "op": "Const", "attr": {"value": {"tensor": {"dtype": "DT_FLOAT", "tensorShape": {}}}, "dtype": {"type": "DT_FLOAT"}}}, {"name": "StatefulPartitionedCall/model/MobilenetV3small/tf.math.multiply_22/Mul/y", "op": "Const", "attr": {"value": {"tensor": {"dtype": "DT_FLOAT", "tensorShape": {}}}, "dtype": {"type": "DT_FLOAT"}}}, {"name": "StatefulPartitionedCall/model/MobilenetV3small/expanded_conv_9/squeeze_excite/AvgPool/Mean/reduction_indices", "op": "Const", "attr": {"value": {"tensor": {"dtype": "DT_INT32", "tensorShape": {"dim": [{"size": "2"}]}}}, "dtype": {"type": "DT_INT32"}}}, {"name": "StatefulPartitionedCall/model/MobilenetV3small/expanded_conv_9/squeeze_excite/Conv/Conv2D/ReadVariableOp", "op": "Const", "attr": {"value": {"tensor": {"dtype": "DT_FLOAT", "tensorShape": {"dim": [{"size": "1"}, {"size": "1"}, {"size": "576"}, {"size": "144"}]}}}, "dtype": {"type": "DT_FLOAT"}}}, {"name": "StatefulPartitionedCall/model/MobilenetV3small/expanded_conv_9/squeeze_excite/Conv/BiasAdd/ReadVariableOp", "op": "Const", "attr": {"value": {"tensor": {"dtype": "DT_FLOAT", "tensorShape": {"dim": [{"size": "144"}]}}}, "dtype": {"type": "DT_FLOAT"}}}, {"name": "StatefulPartitionedCall/model/MobilenetV3small/expanded_conv_9/squeeze_excite/Conv_1/Conv2D/ReadVariableOp", "op": "Const", "attr": {"value": {"tensor": {"dtype": "DT_FLOAT", "tensorShape": {"dim": [{"size": "1"}, {"size": "1"}, {"size": "144"}, {"size": "576"}]}}}, "dtype": {"type": "DT_FLOAT"}}}, {"name": "StatefulPartitionedCall/model/MobilenetV3small/expanded_conv_9/squeeze_excite/Conv_1/BiasAdd/ReadVariableOp", "op": "Const", "attr": {"value": {"tensor": {"dtype": "DT_FLOAT", "tensorShape": {"dim": [{"size": "576"}]}}}, "dtype": {"type": "DT_FLOAT"}}}, {"name": "StatefulPartitionedCall/model/MobilenetV3small/tf.__operators__.add_22/y", "op": "Const", "attr": {"value": {"tensor": {"dtype": "DT_FLOAT", "tensorShape": {}}}, "dtype": {"type": "DT_FLOAT"}}}, {"name": "StatefulPartitionedCall/model/MobilenetV3small/tf.math.multiply_21/Mul/y", "op": "Const", "attr": {"value": {"tensor": {"dtype": "DT_FLOAT", "tensorShape": {}}}, "dtype": {"type": "DT_FLOAT"}}}, {"name": "StatefulPartitionedCall/model/MobilenetV3small/tf.math.multiply_20/Mul/y", "op": "Const", "attr": {"value": {"tensor": {"dtype": "DT_FLOAT", "tensorShape": {}}}, "dtype": {"type": "DT_FLOAT"}}}, {"name": "StatefulPartitionedCall/model/MobilenetV3small/tf.math.multiply_19/Mul/y", "op": "Const", "attr": {"value": {"tensor": {"dtype": "DT_FLOAT", "tensorShape": {}}}, "dtype": {"type": "DT_FLOAT"}}}, {"name": "StatefulPartitionedCall/model/MobilenetV3small/expanded_conv_8/squeeze_excite/AvgPool/Mean/reduction_indices", "op": "Const", "attr": {"value": {"tensor": {"dtype": "DT_INT32", "tensorShape": {"dim": [{"size": "2"}]}}}, "dtype": {"type": "DT_INT32"}}}, {"name": "StatefulPartitionedCall/model/MobilenetV3small/expanded_conv_8/squeeze_excite/Conv/Conv2D/ReadVariableOp", "op": "Const", "attr": {"value": {"tensor": {"dtype": "DT_FLOAT", "tensorShape": {"dim": [{"size": "1"}, {"size": "1"}, {"size": "288"}, {"size": "72"}]}}}, "dtype": {"type": "DT_FLOAT"}}}, {"name": "StatefulPartitionedCall/model/MobilenetV3small/expanded_conv_8/squeeze_excite/Conv/BiasAdd/ReadVariableOp", "op": "Const", "attr": {"value": {"tensor": {"dtype": "DT_FLOAT", "tensorShape": {"dim": [{"size": "72"}]}}}, "dtype": {"type": "DT_FLOAT"}}}, {"name": "StatefulPartitionedCall/model/MobilenetV3small/expanded_conv_8/squeeze_excite/Conv_1/Conv2D/ReadVariableOp", "op": "Const", "attr": {"value": {"tensor": {"dtype": "DT_FLOAT", "tensorShape": {"dim": [{"size": "1"}, {"size": "1"}, {"size": "72"}, {"size": "288"}]}}}, "dtype": {"type": "DT_FLOAT"}}}, {"name": "StatefulPartitionedCall/model/MobilenetV3small/expanded_conv_8/squeeze_excite/Conv_1/BiasAdd/ReadVariableOp", "op": "Const", "attr": {"value": {"tensor": {"dtype": "DT_FLOAT", "tensorShape": {"dim": [{"size": "288"}]}}}, "dtype": {"type": "DT_FLOAT"}}}, {"name": "StatefulPartitionedCall/model/MobilenetV3small/tf.__operators__.add_19/y", "op": "Const", "attr": {"value": {"tensor": {"dtype": "DT_FLOAT", "tensorShape": {}}}, "dtype": {"type": "DT_FLOAT"}}}, {"name": "StatefulPartitionedCall/model/MobilenetV3small/tf.math.multiply_18/Mul/y", "op": "Const", "attr": {"value": {"tensor": {"dtype": "DT_FLOAT", "tensorShape": {}}}, "dtype": {"type": "DT_FLOAT"}}}, {"name": "StatefulPartitionedCall/model/MobilenetV3small/tf.math.multiply_17/Mul/y", "op": "Const", "attr": {"value": {"tensor": {"dtype": "DT_FLOAT", "tensorShape": {}}}, "dtype": {"type": "DT_FLOAT"}}}, {"name": "StatefulPartitionedCall/model/MobilenetV3small/tf.math.multiply_16/Mul/y", "op": "Const", "attr": {"value": {"tensor": {"dtype": "DT_FLOAT", "tensorShape": {}}}, "dtype": {"type": "DT_FLOAT"}}}, {"name": "StatefulPartitionedCall/model/MobilenetV3small/expanded_conv_7/squeeze_excite/AvgPool/Mean/reduction_indices", "op": "Const", "attr": {"value": {"tensor": {"dtype": "DT_INT32", "tensorShape": {"dim": [{"size": "2"}]}}}, "dtype": {"type": "DT_INT32"}}}, {"name": "StatefulPartitionedCall/model/MobilenetV3small/expanded_conv_7/squeeze_excite/Conv/Conv2D/ReadVariableOp", "op": "Const", "attr": {"value": {"tensor": {"dtype": "DT_FLOAT", "tensorShape": {"dim": [{"size": "1"}, {"size": "1"}, {"size": "144"}, {"size": "40"}]}}}, "dtype": {"type": "DT_FLOAT"}}}, {"name": "StatefulPartitionedCall/model/MobilenetV3small/expanded_conv_7/squeeze_excite/Conv/BiasAdd/ReadVariableOp", "op": "Const", "attr": {"value": {"tensor": {"dtype": "DT_FLOAT", "tensorShape": {"dim": [{"size": "40"}]}}}, "dtype": {"type": "DT_FLOAT"}}}, {"name": "StatefulPartitionedCall/model/MobilenetV3small/expanded_conv_7/squeeze_excite/Conv_1/Conv2D/ReadVariableOp", "op": "Const", "attr": {"value": {"tensor": {"dtype": "DT_FLOAT", "tensorShape": {"dim": [{"size": "1"}, {"size": "1"}, {"size": "40"}, {"size": "144"}]}}}, "dtype": {"type": "DT_FLOAT"}}}, {"name": "StatefulPartitionedCall/model/MobilenetV3small/expanded_conv_7/squeeze_excite/Conv_1/BiasAdd/ReadVariableOp", "op": "Const", "attr": {"value": {"tensor": {"dtype": "DT_FLOAT", "tensorShape": {"dim": [{"size": "144"}]}}}, "dtype": {"type": "DT_FLOAT"}}}, {"name": "StatefulPartitionedCall/model/MobilenetV3small/tf.__operators__.add_16/y", "op": "Const", "attr": {"value": {"tensor": {"dtype": "DT_FLOAT", "tensorShape": {}}}, "dtype": {"type": "DT_FLOAT"}}}, {"name": "StatefulPartitionedCall/model/MobilenetV3small/tf.math.multiply_15/Mul/y", "op": "Const", "attr": {"value": {"tensor": {"dtype": "DT_FLOAT", "tensorShape": {}}}, "dtype": {"type": "DT_FLOAT"}}}, {"name": "StatefulPartitionedCall/model/MobilenetV3small/tf.math.multiply_14/Mul/y", "op": "Const", "attr": {"value": {"tensor": {"dtype": "DT_FLOAT", "tensorShape": {}}}, "dtype": {"type": "DT_FLOAT"}}}, {"name": "StatefulPartitionedCall/model/MobilenetV3small/tf.math.multiply_13/Mul/y", "op": "Const", "attr": {"value": {"tensor": {"dtype": "DT_FLOAT", "tensorShape": {}}}, "dtype": {"type": "DT_FLOAT"}}}, {"name": "StatefulPartitionedCall/model/MobilenetV3small/expanded_conv_6/squeeze_excite/AvgPool/Mean/reduction_indices", "op": "Const", "attr": {"value": {"tensor": {"dtype": "DT_INT32", "tensorShape": {"dim": [{"size": "2"}]}}}, "dtype": {"type": "DT_INT32"}}}, {"name": "StatefulPartitionedCall/model/MobilenetV3small/expanded_conv_6/squeeze_excite/Conv/Conv2D/ReadVariableOp", "op": "Const", "attr": {"value": {"tensor": {"dtype": "DT_FLOAT", "tensorShape": {"dim": [{"size": "1"}, {"size": "1"}, {"size": "120"}, {"size": "32"}]}}}, "dtype": {"type": "DT_FLOAT"}}}, {"name": "StatefulPartitionedCall/model/MobilenetV3small/expanded_conv_6/squeeze_excite/Conv/BiasAdd/ReadVariableOp", "op": "Const", "attr": {"value": {"tensor": {"dtype": "DT_FLOAT", "tensorShape": {"dim": [{"size": "32"}]}}}, "dtype": {"type": "DT_FLOAT"}}}, {"name": "StatefulPartitionedCall/model/MobilenetV3small/expanded_conv_6/squeeze_excite/Conv_1/Conv2D/ReadVariableOp", "op": "Const", "attr": {"value": {"tensor": {"dtype": "DT_FLOAT", "tensorShape": {"dim": [{"size": "1"}, {"size": "1"}, {"size": "32"}, {"size": "120"}]}}}, "dtype": {"type": "DT_FLOAT"}}}, {"name": "StatefulPartitionedCall/model/MobilenetV3small/expanded_conv_6/squeeze_excite/Conv_1/BiasAdd/ReadVariableOp", "op": "Const", "attr": {"value": {"tensor": {"dtype": "DT_FLOAT", "tensorShape": {"dim": [{"size": "120"}]}}}, "dtype": {"type": "DT_FLOAT"}}}, {"name": "StatefulPartitionedCall/model/MobilenetV3small/tf.__operators__.add_13/y", "op": "Const", "attr": {"value": {"tensor": {"dtype": "DT_FLOAT", "tensorShape": {}}}, "dtype": {"type": "DT_FLOAT"}}}, {"name": "StatefulPartitionedCall/model/MobilenetV3small/tf.math.multiply_12/Mul/y", "op": "Const", "attr": {"value": {"tensor": {"dtype": "DT_FLOAT", "tensorShape": {}}}, "dtype": {"type": "DT_FLOAT"}}}, {"name": "StatefulPartitionedCall/model/MobilenetV3small/tf.math.multiply_11/Mul/y", "op": "Const", "attr": {"value": {"tensor": {"dtype": "DT_FLOAT", "tensorShape": {}}}, "dtype": {"type": "DT_FLOAT"}}}, {"name": "StatefulPartitionedCall/model/MobilenetV3small/tf.math.multiply_10/Mul/y", "op": "Const", "attr": {"value": {"tensor": {"dtype": "DT_FLOAT", "tensorShape": {}}}, "dtype": {"type": "DT_FLOAT"}}}, {"name": "StatefulPartitionedCall/model/MobilenetV3small/expanded_conv_5/squeeze_excite/AvgPool/Mean/reduction_indices", "op": "Const", "attr": {"value": {"tensor": {"dtype": "DT_INT32", "tensorShape": {"dim": [{"size": "2"}]}}}, "dtype": {"type": "DT_INT32"}}}, {"name": "StatefulPartitionedCall/model/MobilenetV3small/expanded_conv_5/squeeze_excite/Conv/Conv2D/ReadVariableOp", "op": "Const", "attr": {"value": {"tensor": {"dtype": "DT_FLOAT", "tensorShape": {"dim": [{"size": "1"}, {"size": "1"}, {"size": "240"}, {"size": "64"}]}}}, "dtype": {"type": "DT_FLOAT"}}}, {"name": "StatefulPartitionedCall/model/MobilenetV3small/expanded_conv_5/squeeze_excite/Conv/BiasAdd/ReadVariableOp", "op": "Const", "attr": {"value": {"tensor": {"dtype": "DT_FLOAT", "tensorShape": {"dim": [{"size": "64"}]}}}, "dtype": {"type": "DT_FLOAT"}}}, {"name": "StatefulPartitionedCall/model/MobilenetV3small/expanded_conv_5/squeeze_excite/Conv_1/Conv2D/ReadVariableOp", "op": "Const", "attr": {"value": {"tensor": {"dtype": "DT_FLOAT", "tensorShape": {"dim": [{"size": "1"}, {"size": "1"}, {"size": "64"}, {"size": "240"}]}}}, "dtype": {"type": "DT_FLOAT"}}}, {"name": "StatefulPartitionedCall/model/MobilenetV3small/expanded_conv_5/squeeze_excite/Conv_1/BiasAdd/ReadVariableOp", "op": "Const", "attr": {"value": {"tensor": {"dtype": "DT_FLOAT", "tensorShape": {"dim": [{"size": "240"}]}}}, "dtype": {"type": "DT_FLOAT"}}}, {"name": "StatefulPartitionedCall/model/MobilenetV3small/tf.__operators__.add_10/y", "op": "Const", "attr": {"value": {"tensor": {"dtype": "DT_FLOAT", "tensorShape": {}}}, "dtype": {"type": "DT_FLOAT"}}}, {"name": "StatefulPartitionedCall/model/MobilenetV3small/tf.math.multiply_9/Mul/y", "op": "Const", "attr": {"value": {"tensor": {"dtype": "DT_FLOAT", "tensorShape": {}}}, "dtype": {"type": "DT_FLOAT"}}}, {"name": "StatefulPartitionedCall/model/MobilenetV3small/tf.math.multiply_8/Mul/y", "op": "Const", "attr": {"value": {"tensor": {"dtype": "DT_FLOAT", "tensorShape": {}}}, "dtype": {"type": "DT_FLOAT"}}}, {"name": "StatefulPartitionedCall/model/MobilenetV3small/tf.math.multiply_7/Mul/y", "op": "Const", "attr": {"value": {"tensor": {"dtype": "DT_FLOAT", "tensorShape": {}}}, "dtype": {"type": "DT_FLOAT"}}}, {"name": "StatefulPartitionedCall/model/MobilenetV3small/expanded_conv_4/squeeze_excite/AvgPool/Mean/reduction_indices", "op": "Const", "attr": {"value": {"tensor": {"dtype": "DT_INT32", "tensorShape": {"dim": [{"size": "2"}]}}}, "dtype": {"type": "DT_INT32"}}}, {"name": "StatefulPartitionedCall/model/MobilenetV3small/expanded_conv_4/squeeze_excite/Conv/Conv2D/ReadVariableOp", "op": "Const", "attr": {"value": {"tensor": {"dtype": "DT_FLOAT", "tensorShape": {"dim": [{"size": "1"}, {"size": "1"}, {"size": "240"}, {"size": "64"}]}}}, "dtype": {"type": "DT_FLOAT"}}}, {"name": "StatefulPartitionedCall/model/MobilenetV3small/expanded_conv_4/squeeze_excite/Conv/BiasAdd/ReadVariableOp", "op": "Const", "attr": {"value": {"tensor": {"dtype": "DT_FLOAT", "tensorShape": {"dim": [{"size": "64"}]}}}, "dtype": {"type": "DT_FLOAT"}}}, {"name": "StatefulPartitionedCall/model/MobilenetV3small/expanded_conv_4/squeeze_excite/Conv_1/Conv2D/ReadVariableOp", "op": "Const", "attr": {"value": {"tensor": {"dtype": "DT_FLOAT", "tensorShape": {"dim": [{"size": "1"}, {"size": "1"}, {"size": "64"}, {"size": "240"}]}}}, "dtype": {"type": "DT_FLOAT"}}}, {"name": "StatefulPartitionedCall/model/MobilenetV3small/expanded_conv_4/squeeze_excite/Conv_1/BiasAdd/ReadVariableOp", "op": "Const", "attr": {"value": {"tensor": {"dtype": "DT_FLOAT", "tensorShape": {"dim": [{"size": "240"}]}}}, "dtype": {"type": "DT_FLOAT"}}}, {"name": "StatefulPartitionedCall/model/MobilenetV3small/tf.__operators__.add_7/y", "op": "Const", "attr": {"value": {"tensor": {"dtype": "DT_FLOAT", "tensorShape": {}}}, "dtype": {"type": "DT_FLOAT"}}}, {"name": "StatefulPartitionedCall/model/MobilenetV3small/tf.math.multiply_6/Mul/y", "op": "Const", "attr": {"value": {"tensor": {"dtype": "DT_FLOAT", "tensorShape": {}}}, "dtype": {"type": "DT_FLOAT"}}}, {"name": "StatefulPartitionedCall/model/MobilenetV3small/tf.math.multiply_5/Mul/y", "op": "Const", "attr": {"value": {"tensor": {"dtype": "DT_FLOAT", "tensorShape": {}}}, "dtype": {"type": "DT_FLOAT"}}}, {"name": "StatefulPartitionedCall/model/MobilenetV3small/tf.math.multiply_4/Mul/y", "op": "Const", "attr": {"value": {"tensor": {"dtype": "DT_FLOAT", "tensorShape": {}}}, "dtype": {"type": "DT_FLOAT"}}}, {"name": "StatefulPartitionedCall/model/MobilenetV3small/expanded_conv_3/squeeze_excite/AvgPool/Mean/reduction_indices", "op": "Const", "attr": {"value": {"tensor": {"dtype": "DT_INT32", "tensorShape": {"dim": [{"size": "2"}]}}}, "dtype": {"type": "DT_INT32"}}}, {"name": "StatefulPartitionedCall/model/MobilenetV3small/expanded_conv_3/squeeze_excite/Conv/Conv2D/ReadVariableOp", "op": "Const", "attr": {"value": {"tensor": {"dtype": "DT_FLOAT", "tensorShape": {"dim": [{"size": "1"}, {"size": "1"}, {"size": "96"}, {"size": "24"}]}}}, "dtype": {"type": "DT_FLOAT"}}}, {"name": "StatefulPartitionedCall/model/MobilenetV3small/expanded_conv_3/squeeze_excite/Conv/BiasAdd/ReadVariableOp", "op": "Const", "attr": {"value": {"tensor": {"dtype": "DT_FLOAT", "tensorShape": {"dim": [{"size": "24"}]}}}, "dtype": {"type": "DT_FLOAT"}}}, {"name": "StatefulPartitionedCall/model/MobilenetV3small/expanded_conv_3/squeeze_excite/Conv_1/Conv2D/ReadVariableOp", "op": "Const", "attr": {"value": {"tensor": {"dtype": "DT_FLOAT", "tensorShape": {"dim": [{"size": "1"}, {"size": "1"}, {"size": "24"}, {"size": "96"}]}}}, "dtype": {"type": "DT_FLOAT"}}}, {"name": "StatefulPartitionedCall/model/MobilenetV3small/expanded_conv_3/squeeze_excite/Conv_1/BiasAdd/ReadVariableOp", "op": "Const", "attr": {"value": {"tensor": {"dtype": "DT_FLOAT", "tensorShape": {"dim": [{"size": "96"}]}}}, "dtype": {"type": "DT_FLOAT"}}}, {"name": "StatefulPartitionedCall/model/MobilenetV3small/tf.__operators__.add_4/y", "op": "Const", "attr": {"value": {"tensor": {"dtype": "DT_FLOAT", "tensorShape": {}}}, "dtype": {"type": "DT_FLOAT"}}}, {"name": "StatefulPartitionedCall/model/MobilenetV3small/tf.math.multiply_3/Mul/y", "op": "Const", "attr": {"value": {"tensor": {"dtype": "DT_FLOAT", "tensorShape": {}}}, "dtype": {"type": "DT_FLOAT"}}}, {"name": "StatefulPartitionedCall/model/MobilenetV3small/tf.math.multiply_2/Mul/y", "op": "Const", "attr": {"value": {"tensor": {"dtype": "DT_FLOAT", "tensorShape": {}}}, "dtype": {"type": "DT_FLOAT"}}}, {"name": "StatefulPartitionedCall/model/MobilenetV3small/tf.math.multiply_1/Mul/y", "op": "Const", "attr": {"value": {"tensor": {"dtype": "DT_FLOAT", "tensorShape": {}}}, "dtype": {"type": "DT_FLOAT"}}}, {"name": "StatefulPartitionedCall/model/MobilenetV3small/expanded_conv/squeeze_excite/AvgPool/Mean/reduction_indices", "op": "Const", "attr": {"value": {"tensor": {"dtype": "DT_INT32", "tensorShape": {"dim": [{"size": "2"}]}}}, "dtype": {"type": "DT_INT32"}}}, {"name": "StatefulPartitionedCall/model/MobilenetV3small/expanded_conv/squeeze_excite/Conv/Conv2D/ReadVariableOp", "op": "Const", "attr": {"value": {"tensor": {"dtype": "DT_FLOAT", "tensorShape": {"dim": [{"size": "1"}, {"size": "1"}, {"size": "16"}, {"size": "8"}]}}}, "dtype": {"type": "DT_FLOAT"}}}, {"name": "StatefulPartitionedCall/model/MobilenetV3small/expanded_conv/squeeze_excite/Conv/BiasAdd/ReadVariableOp", "op": "Const", "attr": {"value": {"tensor": {"dtype": "DT_FLOAT", "tensorShape": {"dim": [{"size": "8"}]}}}, "dtype": {"type": "DT_FLOAT"}}}, {"name": "StatefulPartitionedCall/model/MobilenetV3small/expanded_conv/squeeze_excite/Conv_1/Conv2D/ReadVariableOp", "op": "Const", "attr": {"value": {"tensor": {"dtype": "DT_FLOAT", "tensorShape": {"dim": [{"size": "1"}, {"size": "1"}, {"size": "8"}, {"size": "16"}]}}}, "dtype": {"type": "DT_FLOAT"}}}, {"name": "StatefulPartitionedCall/model/MobilenetV3small/expanded_conv/squeeze_excite/Conv_1/BiasAdd/ReadVariableOp", "op": "Const", "attr": {"value": {"tensor": {"dtype": "DT_FLOAT", "tensorShape": {"dim": [{"size": "16"}]}}}, "dtype": {"type": "DT_FLOAT"}}}, {"name": "StatefulPartitionedCall/model/MobilenetV3small/tf.__operators__.add_1/y", "op": "Const", "attr": {"value": {"tensor": {"dtype": "DT_FLOAT", "tensorShape": {}}}, "dtype": {"type": "DT_FLOAT"}}}, {"name": "StatefulPartitionedCall/model/MobilenetV3small/tf.math.multiply/Mul/y", "op": "Const", "attr": {"value": {"tensor": {"dtype": "DT_FLOAT", "tensorShape": {}}}, "dtype": {"type": "DT_FLOAT"}}}, {"name": "StatefulPartitionedCall/model/rescaling/Cast/x", "op": "Const", "attr": {"value": {"tensor": {"dtype": "DT_FLOAT", "tensorShape": {}}}, "dtype": {"type": "DT_FLOAT"}}}, {"name": "StatefulPartitionedCall/model/rescaling/Cast_1", "op": "Const", "attr": {"value": {"tensor": {"dtype": "DT_FLOAT", "tensorShape": {}}}, "dtype": {"type": "DT_FLOAT"}}}, {"name": "StatefulPartitionedCall/model/MobilenetV3small/tf.__operators__.add/y", "op": "Const", "attr": {"value": {"tensor": {"dtype": "DT_FLOAT", "tensorShape": {}}}, "dtype": {"type": "DT_FLOAT"}}}, {"name": "StatefulPartitionedCall/model/MobilenetV3small/expanded_conv/depthwise/pad/Pad/paddings", "op": "Const", "attr": {"value": {"tensor": {"dtype": "DT_INT32", "tensorShape": {"dim": [{"size": "4"}, {"size": "2"}]}}}, "dtype": {"type": "DT_INT32"}}}, {"name": "StatefulPartitionedCall/model/MobilenetV3small/expanded_conv_1/depthwise/pad/Pad/paddings", "op": "Const", "attr": {"value": {"tensor": {"dtype": "DT_INT32", "tensorShape": {"dim": [{"size": "4"}, {"size": "2"}]}}}, "dtype": {"type": "DT_INT32"}}}, {"name": "StatefulPartitionedCall/model/MobilenetV3small/tf.__operators__.add_2/y", "op": "Const", "attr": {"value": {"tensor": {"dtype": "DT_FLOAT", "tensorShape": {}}}, "dtype": {"type": "DT_FLOAT"}}}, {"name": "StatefulPartitionedCall/model/MobilenetV3small/expanded_conv_3/depthwise/pad/Pad/paddings", "op": "Const", "attr": {"value": {"tensor": {"dtype": "DT_INT32", "tensorShape": {"dim": [{"size": "4"}, {"size": "2"}]}}}, "dtype": {"type": "DT_INT32"}}}, {"name": "StatefulPartitionedCall/model/MobilenetV3small/tf.__operators__.add_3/y", "op": "Const", "attr": {"value": {"tensor": {"dtype": "DT_FLOAT", "tensorShape": {}}}, "dtype": {"type": "DT_FLOAT"}}}, {"name": "StatefulPartitionedCall/model/MobilenetV3small/tf.__operators__.add_5/y", "op": "Const", "attr": {"value": {"tensor": {"dtype": "DT_FLOAT", "tensorShape": {}}}, "dtype": {"type": "DT_FLOAT"}}}, {"name": "StatefulPartitionedCall/model/MobilenetV3small/tf.__operators__.add_6/y", "op": "Const", "attr": {"value": {"tensor": {"dtype": "DT_FLOAT", "tensorShape": {}}}, "dtype": {"type": "DT_FLOAT"}}}, {"name": "StatefulPartitionedCall/model/MobilenetV3small/tf.__operators__.add_8/y", "op": "Const", "attr": {"value": {"tensor": {"dtype": "DT_FLOAT", "tensorShape": {}}}, "dtype": {"type": "DT_FLOAT"}}}, {"name": "StatefulPartitionedCall/model/MobilenetV3small/tf.__operators__.add_9/y", "op": "Const", "attr": {"value": {"tensor": {"dtype": "DT_FLOAT", "tensorShape": {}}}, "dtype": {"type": "DT_FLOAT"}}}, {"name": "StatefulPartitionedCall/model/MobilenetV3small/tf.__operators__.add_11/y", "op": "Const", "attr": {"value": {"tensor": {"dtype": "DT_FLOAT", "tensorShape": {}}}, "dtype": {"type": "DT_FLOAT"}}}, {"name": "StatefulPartitionedCall/model/MobilenetV3small/tf.__operators__.add_12/y", "op": "Const", "attr": {"value": {"tensor": {"dtype": "DT_FLOAT", "tensorShape": {}}}, "dtype": {"type": "DT_FLOAT"}}}, {"name": "StatefulPartitionedCall/model/MobilenetV3small/tf.__operators__.add_14/y", "op": "Const", "attr": {"value": {"tensor": {"dtype": "DT_FLOAT", "tensorShape": {}}}, "dtype": {"type": "DT_FLOAT"}}}, {"name": "StatefulPartitionedCall/model/MobilenetV3small/tf.__operators__.add_15/y", "op": "Const", "attr": {"value": {"tensor": {"dtype": "DT_FLOAT", "tensorShape": {}}}, "dtype": {"type": "DT_FLOAT"}}}, {"name": "StatefulPartitionedCall/model/MobilenetV3small/tf.__operators__.add_17/y", "op": "Const", "attr": {"value": {"tensor": {"dtype": "DT_FLOAT", "tensorShape": {}}}, "dtype": {"type": "DT_FLOAT"}}}, {"name": "StatefulPartitionedCall/model/MobilenetV3small/expanded_conv_8/depthwise/pad/Pad/paddings", "op": "Const", "attr": {"value": {"tensor": {"dtype": "DT_INT32", "tensorShape": {"dim": [{"size": "4"}, {"size": "2"}]}}}, "dtype": {"type": "DT_INT32"}}}, {"name": "StatefulPartitionedCall/model/MobilenetV3small/tf.__operators__.add_18/y", "op": "Const", "attr": {"value": {"tensor": {"dtype": "DT_FLOAT", "tensorShape": {}}}, "dtype": {"type": "DT_FLOAT"}}}, {"name": "StatefulPartitionedCall/model/MobilenetV3small/tf.__operators__.add_20/y", "op": "Const", "attr": {"value": {"tensor": {"dtype": "DT_FLOAT", "tensorShape": {}}}, "dtype": {"type": "DT_FLOAT"}}}, {"name": "StatefulPartitionedCall/model/MobilenetV3small/tf.__operators__.add_21/y", "op": "Const", "attr": {"value": {"tensor": {"dtype": "DT_FLOAT", "tensorShape": {}}}, "dtype": {"type": "DT_FLOAT"}}}, {"name": "StatefulPartitionedCall/model/MobilenetV3small/tf.__operators__.add_23/y", "op": "Const", "attr": {"value": {"tensor": {"dtype": "DT_FLOAT", "tensorShape": {}}}, "dtype": {"type": "DT_FLOAT"}}}, {"name": "StatefulPartitionedCall/model/MobilenetV3small/tf.__operators__.add_24/y", "op": "Const", "attr": {"value": {"tensor": {"dtype": "DT_FLOAT", "tensorShape": {}}}, "dtype": {"type": "DT_FLOAT"}}}, {"name": "StatefulPartitionedCall/model/MobilenetV3small/tf.__operators__.add_26/y", "op": "Const", "attr": {"value": {"tensor": {"dtype": "DT_FLOAT", "tensorShape": {}}}, "dtype": {"type": "DT_FLOAT"}}}, {"name": "StatefulPartitionedCall/model/global_average_pooling2d/Mean/reduction_indices", "op": "Const", "attr": {"value": {"tensor": {"dtype": "DT_INT32", "tensorShape": {"dim": [{"size": "2"}]}}}, "dtype": {"type": "DT_INT32"}}}, {"name": "StatefulPartitionedCall/model/dense/MatMul/ReadVariableOp", "op": "Const", "attr": {"value": {"tensor": {"dtype": "DT_FLOAT", "tensorShape": {"dim": [{"size": "576"}, {"size": "1"}]}}}, "dtype": {"type": "DT_FLOAT"}}}, {"name": "StatefulPartitionedCall/model/dense/BiasAdd/ReadVariableOp", "op": "Const", "attr": {"value": {"tensor": {"dtype": "DT_FLOAT", "tensorShape": {"dim": [{"size": "1"}]}}}, "dtype": {"type": "DT_FLOAT"}}}, {"name": "input_2", "op": "Placeholder", "attr": {"shape": {"shape": {"dim": [{"size": "-1"}, {"size": "224"}, {"size": "224"}, {"size": "3"}]}}, "dtype": {"type": "DT_FLOAT"}}}, {"name": "StatefulPartitionedCall/model/MobilenetV3small/Conv/Conv2D_weights", "op": "Const", "attr": {"value": {"tensor": {"dtype": "DT_FLOAT", "tensorShape": {"dim": [{"size": "3"}, {"size": "3"}, {"size": "3"}, {"size": "16"}]}}}, "dtype": {"type": "DT_FLOAT"}}}, {"name": "StatefulPartitionedCall/model/MobilenetV3small/Conv/Conv2D_bn_offset", "op": "Const", "attr": {"value": {"tensor": {"dtype": "DT_FLOAT", "tensorShape": {"dim": [{"size": "16"}]}}}, "dtype": {"type": "DT_FLOAT"}}}, {"name": "StatefulPartitionedCall/model/MobilenetV3small/expanded_conv/depthwise/depthwise_weights", "op": "Const", "attr": {"value": {"tensor": {"dtype": "DT_FLOAT", "tensorShape": {"dim": [{"size": "3"}, {"size": "3"}, {"size": "16"}, {"size": "1"}]}}}, "dtype": {"type": "DT_FLOAT"}}}, {"name": "StatefulPartitionedCall/model/MobilenetV3small/expanded_conv/depthwise/depthwise_bn_offset", "op": "Const", "attr": {"value": {"tensor": {"dtype": "DT_FLOAT", "tensorShape": {"dim": [{"size": "16"}]}}}, "dtype": {"type": "DT_FLOAT"}}}, {"name": "StatefulPartitionedCall/model/MobilenetV3small/expanded_conv/project/Conv2D_weights", "op": "Const", "attr": {"value": {"tensor": {"dtype": "DT_FLOAT", "tensorShape": {"dim": [{"size": "1"}, {"size": "1"}, {"size": "16"}, {"size": "16"}]}}}, "dtype": {"type": "DT_FLOAT"}}}, {"name": "StatefulPartitionedCall/model/MobilenetV3small/expanded_conv_9/project/Conv2D_weights", "op": "Const", "attr": {"value": {"tensor": {"dtype": "DT_FLOAT", "tensorShape": {"dim": [{"size": "1"}, {"size": "1"}, {"size": "576"}, {"size": "96"}]}}}, "dtype": {"type": "DT_FLOAT"}}}, {"name": "StatefulPartitionedCall/model/MobilenetV3small/expanded_conv/project/Conv2D_bn_offset", "op": "Const", "attr": {"value": {"tensor": {"dtype": "DT_FLOAT", "tensorShape": {"dim": [{"size": "16"}]}}}, "dtype": {"type": "DT_FLOAT"}}}, {"name": "StatefulPartitionedCall/model/MobilenetV3small/expanded_conv_1/expand/Conv2D_weights", "op": "Const", "attr": {"value": {"tensor": {"dtype": "DT_FLOAT", "tensorShape": {"dim": [{"size": "1"}, {"size": "1"}, {"size": "16"}, {"size": "72"}]}}}, "dtype": {"type": "DT_FLOAT"}}}, {"name": "StatefulPartitionedCall/model/MobilenetV3small/expanded_conv_1/expand/Conv2D_bn_offset", "op": "Const", "attr": {"value": {"tensor": {"dtype": "DT_FLOAT", "tensorShape": {"dim": [{"size": "72"}]}}}, "dtype": {"type": "DT_FLOAT"}}}, {"name": "StatefulPartitionedCall/model/MobilenetV3small/expanded_conv_9/project/Conv2D_bn_offset", "op": "Const", "attr": {"value": {"tensor": {"dtype": "DT_FLOAT", "tensorShape": {"dim": [{"size": "96"}]}}}, "dtype": {"type": "DT_FLOAT"}}}, {"name": "StatefulPartitionedCall/model/MobilenetV3small/expanded_conv_1/depthwise/depthwise_weights", "op": "Const", "attr": {"value": {"tensor": {"dtype": "DT_FLOAT", "tensorShape": {"dim": [{"size": "3"}, {"size": "3"}, {"size": "72"}, {"size": "1"}]}}}, "dtype": {"type": "DT_FLOAT"}}}, {"name": "StatefulPartitionedCall/model/MobilenetV3small/expanded_conv_1/depthwise/depthwise_bn_offset", "op": "Const", "attr": {"value": {"tensor": {"dtype": "DT_FLOAT", "tensorShape": {"dim": [{"size": "72"}]}}}, "dtype": {"type": "DT_FLOAT"}}}, {"name": "StatefulPartitionedCall/model/MobilenetV3small/expanded_conv_1/project/Conv2D_weights", "op": "Const", "attr": {"value": {"tensor": {"dtype": "DT_FLOAT", "tensorShape": {"dim": [{"size": "1"}, {"size": "1"}, {"size": "72"}, {"size": "24"}]}}}, "dtype": {"type": "DT_FLOAT"}}}, {"name": "StatefulPartitionedCall/model/MobilenetV3small/expanded_conv_1/project/Conv2D_bn_offset", "op": "Const", "attr": {"value": {"tensor": {"dtype": "DT_FLOAT", "tensorShape": {"dim": [{"size": "24"}]}}}, "dtype": {"type": "DT_FLOAT"}}}, {"name": "StatefulPartitionedCall/model/MobilenetV3small/expanded_conv_2/expand/Conv2D_weights", "op": "Const", "attr": {"value": {"tensor": {"dtype": "DT_FLOAT", "tensorShape": {"dim": [{"size": "1"}, {"size": "1"}, {"size": "24"}, {"size": "88"}]}}}, "dtype": {"type": "DT_FLOAT"}}}, {"name": "StatefulPartitionedCall/model/MobilenetV3small/expanded_conv_2/expand/Conv2D_bn_offset", "op": "Const", "attr": {"value": {"tensor": {"dtype": "DT_FLOAT", "tensorShape": {"dim": [{"size": "88"}]}}}, "dtype": {"type": "DT_FLOAT"}}}, {"name": "StatefulPartitionedCall/model/MobilenetV3small/expanded_conv_10/expand/Conv2D_weights", "op": "Const", "attr": {"value": {"tensor": {"dtype": "DT_FLOAT", "tensorShape": {"dim": [{"size": "1"}, {"size": "1"}, {"size": "96"}, {"size": "576"}]}}}, "dtype": {"type": "DT_FLOAT"}}}, {"name": "StatefulPartitionedCall/model/MobilenetV3small/expanded_conv_2/depthwise/depthwise_weights", "op": "Const", "attr": {"value": {"tensor": {"dtype": "DT_FLOAT", "tensorShape": {"dim": [{"size": "3"}, {"size": "3"}, {"size": "88"}, {"size": "1"}]}}}, "dtype": {"type": "DT_FLOAT"}}}, {"name": "StatefulPartitionedCall/model/MobilenetV3small/expanded_conv_2/depthwise/depthwise_bn_offset", "op": "Const", "attr": {"value": {"tensor": {"dtype": "DT_FLOAT", "tensorShape": {"dim": [{"size": "88"}]}}}, "dtype": {"type": "DT_FLOAT"}}}, {"name": "StatefulPartitionedCall/model/MobilenetV3small/expanded_conv_2/project/Conv2D_weights", "op": "Const", "attr": {"value": {"tensor": {"dtype": "DT_FLOAT", "tensorShape": {"dim": [{"size": "1"}, {"size": "1"}, {"size": "88"}, {"size": "24"}]}}}, "dtype": {"type": "DT_FLOAT"}}}, {"name": "StatefulPartitionedCall/model/MobilenetV3small/expanded_conv_2/project/Conv2D_bn_offset", "op": "Const", "attr": {"value": {"tensor": {"dtype": "DT_FLOAT", "tensorShape": {"dim": [{"size": "24"}]}}}, "dtype": {"type": "DT_FLOAT"}}}, {"name": "StatefulPartitionedCall/model/MobilenetV3small/expanded_conv_3/expand/Conv2D_weights", "op": "Const", "attr": {"value": {"tensor": {"dtype": "DT_FLOAT", "tensorShape": {"dim": [{"size": "1"}, {"size": "1"}, {"size": "24"}, {"size": "96"}]}}}, "dtype": {"type": "DT_FLOAT"}}}, {"name": "StatefulPartitionedCall/model/MobilenetV3small/expanded_conv_10/expand/Conv2D_bn_offset", "op": "Const", "attr": {"value": {"tensor": {"dtype": "DT_FLOAT", "tensorShape": {"dim": [{"size": "576"}]}}}, "dtype": {"type": "DT_FLOAT"}}}, {"name": "StatefulPartitionedCall/model/MobilenetV3small/expanded_conv_3/expand/Conv2D_bn_offset", "op": "Const", "attr": {"value": {"tensor": {"dtype": "DT_FLOAT", "tensorShape": {"dim": [{"size": "96"}]}}}, "dtype": {"type": "DT_FLOAT"}}}, {"name": "StatefulPartitionedCall/model/MobilenetV3small/expanded_conv_3/depthwise/depthwise_weights", "op": "Const", "attr": {"value": {"tensor": {"dtype": "DT_FLOAT", "tensorShape": {"dim": [{"size": "5"}, {"size": "5"}, {"size": "96"}, {"size": "1"}]}}}, "dtype": {"type": "DT_FLOAT"}}}, {"name": "StatefulPartitionedCall/model/MobilenetV3small/expanded_conv_3/depthwise/depthwise_bn_offset", "op": "Const", "attr": {"value": {"tensor": {"dtype": "DT_FLOAT", "tensorShape": {"dim": [{"size": "96"}]}}}, "dtype": {"type": "DT_FLOAT"}}}, {"name": "StatefulPartitionedCall/model/MobilenetV3small/expanded_conv_3/project/Conv2D_weights", "op": "Const", "attr": {"value": {"tensor": {"dtype": "DT_FLOAT", "tensorShape": {"dim": [{"size": "1"}, {"size": "1"}, {"size": "96"}, {"size": "40"}]}}}, "dtype": {"type": "DT_FLOAT"}}}, {"name": "StatefulPartitionedCall/model/MobilenetV3small/expanded_conv_3/project/Conv2D_bn_offset", "op": "Const", "attr": {"value": {"tensor": {"dtype": "DT_FLOAT", "tensorShape": {"dim": [{"size": "40"}]}}}, "dtype": {"type": "DT_FLOAT"}}}, {"name": "StatefulPartitionedCall/model/MobilenetV3small/expanded_conv_4/expand/Conv2D_weights", "op": "Const", "attr": {"value": {"tensor": {"dtype": "DT_FLOAT", "tensorShape": {"dim": [{"size": "1"}, {"size": "1"}, {"size": "40"}, {"size": "240"}]}}}, "dtype": {"type": "DT_FLOAT"}}}, {"name": "StatefulPartitionedCall/model/MobilenetV3small/expanded_conv_4/expand/Conv2D_bn_offset", "op": "Const", "attr": {"value": {"tensor": {"dtype": "DT_FLOAT", "tensorShape": {"dim": [{"size": "240"}]}}}, "dtype": {"type": "DT_FLOAT"}}}, {"name": "StatefulPartitionedCall/model/MobilenetV3small/expanded_conv_4/depthwise/depthwise_weights", "op": "Const", "attr": {"value": {"tensor": {"dtype": "DT_FLOAT", "tensorShape": {"dim": [{"size": "5"}, {"size": "5"}, {"size": "240"}, {"size": "1"}]}}}, "dtype": {"type": "DT_FLOAT"}}}, {"name": "StatefulPartitionedCall/model/MobilenetV3small/expanded_conv_4/depthwise/depthwise_bn_offset", "op": "Const", "attr": {"value": {"tensor": {"dtype": "DT_FLOAT", "tensorShape": {"dim": [{"size": "240"}]}}}, "dtype": {"type": "DT_FLOAT"}}}, {"name": "StatefulPartitionedCall/model/MobilenetV3small/expanded_conv_10/depthwise/depthwise_weights", "op": "Const", "attr": {"value": {"tensor": {"dtype": "DT_FLOAT", "tensorShape": {"dim": [{"size": "5"}, {"size": "5"}, {"size": "576"}, {"size": "1"}]}}}, "dtype": {"type": "DT_FLOAT"}}}, {"name": "StatefulPartitionedCall/model/MobilenetV3small/expanded_conv_10/depthwise/depthwise_bn_offset", "op": "Const", "attr": {"value": {"tensor": {"dtype": "DT_FLOAT", "tensorShape": {"dim": [{"size": "576"}]}}}, "dtype": {"type": "DT_FLOAT"}}}, {"name": "StatefulPartitionedCall/model/MobilenetV3small/expanded_conv_4/project/Conv2D_weights", "op": "Const", "attr": {"value": {"tensor": {"dtype": "DT_FLOAT", "tensorShape": {"dim": [{"size": "1"}, {"size": "1"}, {"size": "240"}, {"size": "40"}]}}}, "dtype": {"type": "DT_FLOAT"}}}, {"name": "StatefulPartitionedCall/model/MobilenetV3small/expanded_conv_4/project/Conv2D_bn_offset", "op": "Const", "attr": {"value": {"tensor": {"dtype": "DT_FLOAT", "tensorShape": {"dim": [{"size": "40"}]}}}, "dtype": {"type": "DT_FLOAT"}}}, {"name": "StatefulPartitionedCall/model/MobilenetV3small/expanded_conv_5/expand/Conv2D_weights", "op": "Const", "attr": {"value": {"tensor": {"dtype": "DT_FLOAT", "tensorShape": {"dim": [{"size": "1"}, {"size": "1"}, {"size": "40"}, {"size": "240"}]}}}, "dtype": {"type": "DT_FLOAT"}}}, {"name": "StatefulPartitionedCall/model/MobilenetV3small/expanded_conv_5/expand/Conv2D_bn_offset", "op": "Const", "attr": {"value": {"tensor": {"dtype": "DT_FLOAT", "tensorShape": {"dim": [{"size": "240"}]}}}, "dtype": {"type": "DT_FLOAT"}}}, {"name": "StatefulPartitionedCall/model/MobilenetV3small/expanded_conv_5/depthwise/depthwise_weights", "op": "Const", "attr": {"value": {"tensor": {"dtype": "DT_FLOAT", "tensorShape": {"dim": [{"size": "5"}, {"size": "5"}, {"size": "240"}, {"size": "1"}]}}}, "dtype": {"type": "DT_FLOAT"}}}, {"name": "StatefulPartitionedCall/model/MobilenetV3small/expanded_conv_5/depthwise/depthwise_bn_offset", "op": "Const", "attr": {"value": {"tensor": {"dtype": "DT_FLOAT", "tensorShape": {"dim": [{"size": "240"}]}}}, "dtype": {"type": "DT_FLOAT"}}}, {"name": "StatefulPartitionedCall/model/MobilenetV3small/expanded_conv_5/project/Conv2D_weights", "op": "Const", "attr": {"value": {"tensor": {"dtype": "DT_FLOAT", "tensorShape": {"dim": [{"size": "1"}, {"size": "1"}, {"size": "240"}, {"size": "40"}]}}}, "dtype": {"type": "DT_FLOAT"}}}, {"name": "StatefulPartitionedCall/model/MobilenetV3small/expanded_conv_5/project/Conv2D_bn_offset", "op": "Const", "attr": {"value": {"tensor": {"dtype": "DT_FLOAT", "tensorShape": {"dim": [{"size": "40"}]}}}, "dtype": {"type": "DT_FLOAT"}}}, {"name": "StatefulPartitionedCall/model/MobilenetV3small/expanded_conv_6/expand/Conv2D_weights", "op": "Const", "attr": {"value": {"tensor": {"dtype": "DT_FLOAT", "tensorShape": {"dim": [{"size": "1"}, {"size": "1"}, {"size": "40"}, {"size": "120"}]}}}, "dtype": {"type": "DT_FLOAT"}}}, {"name": "StatefulPartitionedCall/model/MobilenetV3small/expanded_conv_6/expand/Conv2D_bn_offset", "op": "Const", "attr": {"value": {"tensor": {"dtype": "DT_FLOAT", "tensorShape": {"dim": [{"size": "120"}]}}}, "dtype": {"type": "DT_FLOAT"}}}, {"name": "StatefulPartitionedCall/model/MobilenetV3small/expanded_conv_6/depthwise/depthwise_weights", "op": "Const", "attr": {"value": {"tensor": {"dtype": "DT_FLOAT", "tensorShape": {"dim": [{"size": "5"}, {"size": "5"}, {"size": "120"}, {"size": "1"}]}}}, "dtype": {"type": "DT_FLOAT"}}}, {"name": "StatefulPartitionedCall/model/MobilenetV3small/expanded_conv_6/depthwise/depthwise_bn_offset", "op": "Const", "attr": {"value": {"tensor": {"dtype": "DT_FLOAT", "tensorShape": {"dim": [{"size": "120"}]}}}, "dtype": {"type": "DT_FLOAT"}}}, {"name": "StatefulPartitionedCall/model/MobilenetV3small/expanded_conv_6/project/Conv2D_weights", "op": "Const", "attr": {"value": {"tensor": {"dtype": "DT_FLOAT", "tensorShape": {"dim": [{"size": "1"}, {"size": "1"}, {"size": "120"}, {"size": "48"}]}}}, "dtype": {"type": "DT_FLOAT"}}}, {"name": "StatefulPartitionedCall/model/MobilenetV3small/expanded_conv_6/project/Conv2D_bn_offset", "op": "Const", "attr": {"value": {"tensor": {"dtype": "DT_FLOAT", "tensorShape": {"dim": [{"size": "48"}]}}}, "dtype": {"type": "DT_FLOAT"}}}, {"name": "StatefulPartitionedCall/model/MobilenetV3small/expanded_conv_7/expand/Conv2D_weights", "op": "Const", "attr": {"value": {"tensor": {"dtype": "DT_FLOAT", "tensorShape": {"dim": [{"size": "1"}, {"size": "1"}, {"size": "48"}, {"size": "144"}]}}}, "dtype": {"type": "DT_FLOAT"}}}, {"name": "StatefulPartitionedCall/model/MobilenetV3small/expanded_conv_7/expand/Conv2D_bn_offset", "op": "Const", "attr": {"value": {"tensor": {"dtype": "DT_FLOAT", "tensorShape": {"dim": [{"size": "144"}]}}}, "dtype": {"type": "DT_FLOAT"}}}, {"name": "StatefulPartitionedCall/model/MobilenetV3small/expanded_conv_7/depthwise/depthwise_weights", "op": "Const", "attr": {"value": {"tensor": {"dtype": "DT_FLOAT", "tensorShape": {"dim": [{"size": "5"}, {"size": "5"}, {"size": "144"}, {"size": "1"}]}}}, "dtype": {"type": "DT_FLOAT"}}}, {"name": "StatefulPartitionedCall/model/MobilenetV3small/expanded_conv_7/depthwise/depthwise_bn_offset", "op": "Const", "attr": {"value": {"tensor": {"dtype": "DT_FLOAT", "tensorShape": {"dim": [{"size": "144"}]}}}, "dtype": {"type": "DT_FLOAT"}}}, {"name": "StatefulPartitionedCall/model/MobilenetV3small/expanded_conv_7/project/Conv2D_weights", "op": "Const", "attr": {"value": {"tensor": {"dtype": "DT_FLOAT", "tensorShape": {"dim": [{"size": "1"}, {"size": "1"}, {"size": "144"}, {"size": "48"}]}}}, "dtype": {"type": "DT_FLOAT"}}}, {"name": "StatefulPartitionedCall/model/MobilenetV3small/expanded_conv_10/project/Conv2D_weights", "op": "Const", "attr": {"value": {"tensor": {"dtype": "DT_FLOAT", "tensorShape": {"dim": [{"size": "1"}, {"size": "1"}, {"size": "576"}, {"size": "96"}]}}}, "dtype": {"type": "DT_FLOAT"}}}, {"name": "StatefulPartitionedCall/model/MobilenetV3small/expanded_conv_7/project/Conv2D_bn_offset", "op": "Const", "attr": {"value": {"tensor": {"dtype": "DT_FLOAT", "tensorShape": {"dim": [{"size": "48"}]}}}, "dtype": {"type": "DT_FLOAT"}}}, {"name": "StatefulPartitionedCall/model/MobilenetV3small/expanded_conv_8/expand/Conv2D_weights", "op": "Const", "attr": {"value": {"tensor": {"dtype": "DT_FLOAT", "tensorShape": {"dim": [{"size": "1"}, {"size": "1"}, {"size": "48"}, {"size": "288"}]}}}, "dtype": {"type": "DT_FLOAT"}}}, {"name": "StatefulPartitionedCall/model/MobilenetV3small/expanded_conv_8/expand/Conv2D_bn_offset", "op": "Const", "attr": {"value": {"tensor": {"dtype": "DT_FLOAT", "tensorShape": {"dim": [{"size": "288"}]}}}, "dtype": {"type": "DT_FLOAT"}}}, {"name": "StatefulPartitionedCall/model/MobilenetV3small/expanded_conv_8/depthwise/depthwise_weights", "op": "Const", "attr": {"value": {"tensor": {"dtype": "DT_FLOAT", "tensorShape": {"dim": [{"size": "5"}, {"size": "5"}, {"size": "288"}, {"size": "1"}]}}}, "dtype": {"type": "DT_FLOAT"}}}, {"name": "StatefulPartitionedCall/model/MobilenetV3small/expanded_conv_8/depthwise/depthwise_bn_offset", "op": "Const", "attr": {"value": {"tensor": {"dtype": "DT_FLOAT", "tensorShape": {"dim": [{"size": "288"}]}}}, "dtype": {"type": "DT_FLOAT"}}}, {"name": "StatefulPartitionedCall/model/MobilenetV3small/expanded_conv_10/project/Conv2D_bn_offset", "op": "Const", "attr": {"value": {"tensor": {"dtype": "DT_FLOAT", "tensorShape": {"dim": [{"size": "96"}]}}}, "dtype": {"type": "DT_FLOAT"}}}, {"name": "StatefulPartitionedCall/model/MobilenetV3small/expanded_conv_8/project/Conv2D_weights", "op": "Const", "attr": {"value": {"tensor": {"dtype": "DT_FLOAT", "tensorShape": {"dim": [{"size": "1"}, {"size": "1"}, {"size": "288"}, {"size": "96"}]}}}, "dtype": {"type": "DT_FLOAT"}}}, {"name": "StatefulPartitionedCall/model/MobilenetV3small/Conv_1/Conv2D_weights", "op": "Const", "attr": {"value": {"tensor": {"dtype": "DT_FLOAT", "tensorShape": {"dim": [{"size": "1"}, {"size": "1"}, {"size": "96"}, {"size": "576"}]}}}, "dtype": {"type": "DT_FLOAT"}}}, {"name": "StatefulPartitionedCall/model/MobilenetV3small/expanded_conv_8/project/Conv2D_bn_offset", "op": "Const", "attr": {"value": {"tensor": {"dtype": "DT_FLOAT", "tensorShape": {"dim": [{"size": "96"}]}}}, "dtype": {"type": "DT_FLOAT"}}}, {"name": "StatefulPartitionedCall/model/MobilenetV3small/expanded_conv_9/expand/Conv2D_weights", "op": "Const", "attr": {"value": {"tensor": {"dtype": "DT_FLOAT", "tensorShape": {"dim": [{"size": "1"}, {"size": "1"}, {"size": "96"}, {"size": "576"}]}}}, "dtype": {"type": "DT_FLOAT"}}}, {"name": "StatefulPartitionedCall/model/MobilenetV3small/expanded_conv_9/expand/Conv2D_bn_offset", "op": "Const", "attr": {"value": {"tensor": {"dtype": "DT_FLOAT", "tensorShape": {"dim": [{"size": "576"}]}}}, "dtype": {"type": "DT_FLOAT"}}}, {"name": "StatefulPartitionedCall/model/MobilenetV3small/expanded_conv_9/depthwise/depthwise_weights", "op": "Const", "attr": {"value": {"tensor": {"dtype": "DT_FLOAT", "tensorShape": {"dim": [{"size": "5"}, {"size": "5"}, {"size": "576"}, {"size": "1"}]}}}, "dtype": {"type": "DT_FLOAT"}}}, {"name": "StatefulPartitionedCall/model/MobilenetV3small/expanded_conv_9/depthwise/depthwise_bn_offset", "op": "Const", "attr": {"value": {"tensor": {"dtype": "DT_FLOAT", "tensorShape": {"dim": [{"size": "576"}]}}}, "dtype": {"type": "DT_FLOAT"}}}, {"name": "StatefulPartitionedCall/model/MobilenetV3small/Conv_1/Conv2D_bn_offset", "op": "Const", "attr": {"value": {"tensor": {"dtype": "DT_FLOAT", "tensorShape": {"dim": [{"size": "576"}]}}}, "dtype": {"type": "DT_FLOAT"}}}, {"name": "StatefulPartitionedCall/model/rescaling/mul", "op": "Mul", "input": ["input_2", "StatefulPartitionedCall/model/rescaling/Cast/x"], "attr": {"T": {"type": "DT_FLOAT"}}}, {"name": "StatefulPartitionedCall/model/rescaling/add", "op": "AddV2", "input": ["StatefulPartitionedCall/model/rescaling/mul", "StatefulPartitionedCall/model/rescaling/Cast_1"], "attr": {"T": {"type": "DT_FLOAT"}}}, {"name": "StatefulPartitionedCall/model/MobilenetV3small/Conv/BatchNorm/FusedBatchNormV3", "op": "_FusedConv2D", "input": ["StatefulPartitionedCall/model/rescaling/add", "StatefulPartitionedCall/model/MobilenetV3small/Conv/Conv2D_weights", "StatefulPartitionedCall/model/MobilenetV3small/Conv/Conv2D_bn_offset"], "device": "/device:CPU:0", "attr": {"num_host_args": {"i": "0"}, "data_format": {"s": "TkhXQw=="}, "filter_format": {"s": "SFdJTw=="}, "strides": {"list": {"i": ["1", "2", "2", "1"]}}, "num_args": {"i": "1"}, "fused_ops": {"list": {"s": ["Qmlhc0FkZA=="]}}, "TArgs": {"list": {"type": ["DT_FLOAT"]}}, "padding": {"s": "U0FNRQ=="}, "use_cudnn_on_gpu": {"b": true}, "leakyrelu_alpha": {"f": 0.2}, "epsilon": {"f": 0.0}, "T": {"type": "DT_FLOAT"}, "explicit_paddings": {"list": {}}, "dilations": {"list": {"i": ["1", "1", "1", "1"]}}}}, {"name": "StatefulPartitionedCall/model/MobilenetV3small/tf.math.multiply/Mul", "op": "Mul", "input": ["StatefulPartitionedCall/model/MobilenetV3small/tf.math.multiply/Mul/y", "StatefulPartitionedCall/model/MobilenetV3small/Conv/BatchNorm/FusedBatchNormV3"], "attr": {"_grappler_ArithmeticOptimizer_MinimizeBroadcasts": {"b": true}, "T": {"type": "DT_FLOAT"}}}, {"name": "StatefulPartitionedCall/model/MobilenetV3small/tf.__operators__.add/AddV2", "op": "AddV2", "input": ["StatefulPartitionedCall/model/MobilenetV3small/Conv/BatchNorm/FusedBatchNormV3", "StatefulPartitionedCall/model/MobilenetV3small/tf.__operators__.add/y"], "attr": {"T": {"type": "DT_FLOAT"}}}, {"name": "StatefulPartitionedCall/model/MobilenetV3small/re_lu/Relu6", "op": "Relu6", "input": ["StatefulPartitionedCall/model/MobilenetV3small/tf.__operators__.add/AddV2"], "attr": {"T": {"type": "DT_FLOAT"}}}, {"name": "StatefulPartitionedCall/model/MobilenetV3small/multiply/mul", "op": "Mul", "input": ["StatefulPartitionedCall/model/MobilenetV3small/tf.math.multiply/Mul", "StatefulPartitionedCall/model/MobilenetV3small/re_lu/Relu6"], "attr": {"_grappler_ArithmeticOptimizer_MinimizeBroadcasts": {"b": true}, "T": {"type": "DT_FLOAT"}}}, {"name": "StatefulPartitionedCall/model/MobilenetV3small/expanded_conv/depthwise/pad/Pad", "op": "Pad", "input": ["StatefulPartitionedCall/model/MobilenetV3small/multiply/mul", "StatefulPartitionedCall/model/MobilenetV3small/expanded_conv/depthwise/pad/Pad/paddings"], "attr": {"Tpaddings": {"type": "DT_INT32"}, "T": {"type": "DT_FLOAT"}}}, {"name": "StatefulPartitionedCall/model/MobilenetV3small/expanded_conv/depthwise/depthwise", "op": "FusedDepthwiseConv2dNative", "input": ["StatefulPartitionedCall/model/MobilenetV3small/expanded_conv/depthwise/pad/Pad", "StatefulPartitionedCall/model/MobilenetV3small/expanded_conv/depthwise/depthwise_weights", "StatefulPartitionedCall/model/MobilenetV3small/expanded_conv/depthwise/depthwise_bn_offset"], "attr": {"padding": {"s": "VkFMSUQ="}, "data_format": {"s": "TkhXQw=="}, "fused_ops": {"list": {"s": ["Qmlhc0FkZA==", "UmVsdQ=="]}}, "num_args": {"i": "1"}, "strides": {"list": {"i": ["1", "2", "2", "1"]}}, "T": {"type": "DT_FLOAT"}, "explicit_paddings": {"list": {}}, "dilations": {"list": {"i": ["1", "1", "1", "1"]}}}}, {"name": "StatefulPartitionedCall/model/MobilenetV3small/expanded_conv/squeeze_excite/AvgPool/Mean", "op": "Mean", "input": ["StatefulPartitionedCall/model/MobilenetV3small/expanded_conv/depthwise/depthwise", "StatefulPartitionedCall/model/MobilenetV3small/expanded_conv/squeeze_excite/AvgPool/Mean/reduction_indices"], "attr": {"Tidx": {"type": "DT_INT32"}, "T": {"type": "DT_FLOAT"}, "keep_dims": {"b": true}}}, {"name": "StatefulPartitionedCall/model/MobilenetV3small/expanded_conv/squeeze_excite/Relu/Relu", "op": "_FusedConv2D", "input": ["StatefulPartitionedCall/model/MobilenetV3small/expanded_conv/squeeze_excite/AvgPool/Mean", "StatefulPartitionedCall/model/MobilenetV3small/expanded_conv/squeeze_excite/Conv/Conv2D/ReadVariableOp", "StatefulPartitionedCall/model/MobilenetV3small/expanded_conv/squeeze_excite/Conv/BiasAdd/ReadVariableOp"], "device": "/device:CPU:0", "attr": {"num_host_args": {"i": "0"}, "data_format": {"s": "TkhXQw=="}, "filter_format": {"s": "SFdJTw=="}, "fused_ops": {"list": {"s": ["Qmlhc0FkZA==", "UmVsdQ=="]}}, "num_args": {"i": "1"}, "strides": {"list": {"i": ["1", "1", "1", "1"]}}, "TArgs": {"list": {"type": ["DT_FLOAT"]}}, "padding": {"s": "U0FNRQ=="}, "use_cudnn_on_gpu": {"b": true}, "leakyrelu_alpha": {"f": 0.2}, "epsilon": {"f": 0.0}, "T": {"type": "DT_FLOAT"}, "explicit_paddings": {"list": {}}, "dilations": {"list": {"i": ["1", "1", "1", "1"]}}}}, {"name": "StatefulPartitionedCall/model/MobilenetV3small/expanded_conv/squeeze_excite/Conv_1/BiasAdd", "op": "_FusedConv2D", "input": ["StatefulPartitionedCall/model/MobilenetV3small/expanded_conv/squeeze_excite/Relu/Relu", "StatefulPartitionedCall/model/MobilenetV3small/expanded_conv/squeeze_excite/Conv_1/Conv2D/ReadVariableOp", "StatefulPartitionedCall/model/MobilenetV3small/expanded_conv/squeeze_excite/Conv_1/BiasAdd/ReadVariableOp"], "device": "/device:CPU:0", "attr": {"num_host_args": {"i": "0"}, "data_format": {"s": "TkhXQw=="}, "filter_format": {"s": "SFdJTw=="}, "fused_ops": {"list": {"s": ["Qmlhc0FkZA=="]}}, "num_args": {"i": "1"}, "strides": {"list": {"i": ["1", "1", "1", "1"]}}, "TArgs": {"list": {"type": ["DT_FLOAT"]}}, "padding": {"s": "U0FNRQ=="}, "use_cudnn_on_gpu": {"b": true}, "leakyrelu_alpha": {"f": 0.2}, "epsilon": {"f": 0.0}, "T": {"type": "DT_FLOAT"}, "explicit_paddings": {"list": {}}, "dilations": {"list": {"i": ["1", "1", "1", "1"]}}}}, {"name": "StatefulPartitionedCall/model/MobilenetV3small/tf.__operators__.add_1/AddV2", "op": "AddV2", "input": ["StatefulPartitionedCall/model/MobilenetV3small/expanded_conv/squeeze_excite/Conv_1/BiasAdd", "StatefulPartitionedCall/model/MobilenetV3small/tf.__operators__.add_1/y"], "attr": {"T": {"type": "DT_FLOAT"}}}, {"name": "StatefulPartitionedCall/model/MobilenetV3small/re_lu_2/Relu6", "op": "Relu6", "input": ["StatefulPartitionedCall/model/MobilenetV3small/tf.__operators__.add_1/AddV2"], "attr": {"T": {"type": "DT_FLOAT"}}}, {"name": "StatefulPartitionedCall/model/MobilenetV3small/tf.math.multiply_1/Mul", "op": "Mul", "input": ["StatefulPartitionedCall/model/MobilenetV3small/tf.math.multiply_1/Mul/y", "StatefulPartitionedCall/model/MobilenetV3small/re_lu_2/Relu6"], "attr": {"_grappler_ArithmeticOptimizer_MinimizeBroadcasts": {"b": true}, "T": {"type": "DT_FLOAT"}}}, {"name": "StatefulPartitionedCall/model/MobilenetV3small/expanded_conv/squeeze_excite/Mul/mul", "op": "Mul", "input": ["StatefulPartitionedCall/model/MobilenetV3small/tf.math.multiply_1/Mul", "StatefulPartitionedCall/model/MobilenetV3small/expanded_conv/depthwise/depthwise"], "attr": {"_grappler_ArithmeticOptimizer_MinimizeBroadcasts": {"b": true}, "T": {"type": "DT_FLOAT"}}}, {"name": "StatefulPartitionedCall/model/MobilenetV3small/expanded_conv/project/BatchNorm/FusedBatchNormV3", "op": "_FusedConv2D", "input": ["StatefulPartitionedCall/model/MobilenetV3small/expanded_conv/squeeze_excite/Mul/mul", "StatefulPartitionedCall/model/MobilenetV3small/expanded_conv/project/Conv2D_weights", "StatefulPartitionedCall/model/MobilenetV3small/expanded_conv/project/Conv2D_bn_offset"], "device": "/device:CPU:0", "attr": {"num_host_args": {"i": "0"}, "data_format": {"s": "TkhXQw=="}, "filter_format": {"s": "SFdJTw=="}, "strides": {"list": {"i": ["1", "1", "1", "1"]}}, "num_args": {"i": "1"}, "fused_ops": {"list": {"s": ["Qmlhc0FkZA=="]}}, "TArgs": {"list": {"type": ["DT_FLOAT"]}}, "padding": {"s": "U0FNRQ=="}, "use_cudnn_on_gpu": {"b": true}, "leakyrelu_alpha": {"f": 0.2}, "epsilon": {"f": 0.0}, "T": {"type": "DT_FLOAT"}, "explicit_paddings": {"list": {}}, "dilations": {"list": {"i": ["1", "1", "1", "1"]}}}}, {"name": "StatefulPartitionedCall/model/MobilenetV3small/re_lu_3/Relu", "op": "_FusedConv2D", "input": ["StatefulPartitionedCall/model/MobilenetV3small/expanded_conv/project/BatchNorm/FusedBatchNormV3", "StatefulPartitionedCall/model/MobilenetV3small/expanded_conv_1/expand/Conv2D_weights", "StatefulPartitionedCall/model/MobilenetV3small/expanded_conv_1/expand/Conv2D_bn_offset"], "device": "/device:CPU:0", "attr": {"num_host_args": {"i": "0"}, "data_format": {"s": "TkhXQw=="}, "filter_format": {"s": "SFdJTw=="}, "fused_ops": {"list": {"s": ["Qmlhc0FkZA==", "UmVsdQ=="]}}, "num_args": {"i": "1"}, "strides": {"list": {"i": ["1", "1", "1", "1"]}}, "TArgs": {"list": {"type": ["DT_FLOAT"]}}, "padding": {"s": "U0FNRQ=="}, "use_cudnn_on_gpu": {"b": true}, "leakyrelu_alpha": {"f": 0.2}, "epsilon": {"f": 0.0}, "T": {"type": "DT_FLOAT"}, "explicit_paddings": {"list": {}}, "dilations": {"list": {"i": ["1", "1", "1", "1"]}}}}, {"name": "StatefulPartitionedCall/model/MobilenetV3small/expanded_conv_1/depthwise/pad/Pad", "op": "Pad", "input": ["StatefulPartitionedCall/model/MobilenetV3small/re_lu_3/Relu", "StatefulPartitionedCall/model/MobilenetV3small/expanded_conv_1/depthwise/pad/Pad/paddings"], "attr": {"Tpaddings": {"type": "DT_INT32"}, "T": {"type": "DT_FLOAT"}}}, {"name": "StatefulPartitionedCall/model/MobilenetV3small/expanded_conv_1/depthwise/depthwise", "op": "FusedDepthwiseConv2dNative", "input": ["StatefulPartitionedCall/model/MobilenetV3small/expanded_conv_1/depthwise/pad/Pad", "StatefulPartitionedCall/model/MobilenetV3small/expanded_conv_1/depthwise/depthwise_weights", "StatefulPartitionedCall/model/MobilenetV3small/expanded_conv_1/depthwise/depthwise_bn_offset"], "attr": {"padding": {"s": "VkFMSUQ="}, "data_format": {"s": "TkhXQw=="}, "fused_ops": {"list": {"s": ["Qmlhc0FkZA==", "UmVsdQ=="]}}, "num_args": {"i": "1"}, "strides": {"list": {"i": ["1", "2", "2", "1"]}}, "T": {"type": "DT_FLOAT"}, "explicit_paddings": {"list": {}}, "dilations": {"list": {"i": ["1", "1", "1", "1"]}}}}, {"name": "StatefulPartitionedCall/model/MobilenetV3small/expanded_conv_1/project/BatchNorm/FusedBatchNormV3", "op": "_FusedConv2D", "input": ["StatefulPartitionedCall/model/MobilenetV3small/expanded_conv_1/depthwise/depthwise", "StatefulPartitionedCall/model/MobilenetV3small/expanded_conv_1/project/Conv2D_weights", "StatefulPartitionedCall/model/MobilenetV3small/expanded_conv_1/project/Conv2D_bn_offset"], "device": "/device:CPU:0", "attr": {"num_host_args": {"i": "0"}, "data_format": {"s": "TkhXQw=="}, "filter_format": {"s": "SFdJTw=="}, "strides": {"list": {"i": ["1", "1", "1", "1"]}}, "num_args": {"i": "1"}, "fused_ops": {"list": {"s": ["Qmlhc0FkZA=="]}}, "TArgs": {"list": {"type": ["DT_FLOAT"]}}, "padding": {"s": "U0FNRQ=="}, "use_cudnn_on_gpu": {"b": true}, "leakyrelu_alpha": {"f": 0.2}, "epsilon": {"f": 0.0}, "T": {"type": "DT_FLOAT"}, "explicit_paddings": {"list": {}}, "dilations": {"list": {"i": ["1", "1", "1", "1"]}}}}, {"name": "StatefulPartitionedCall/model/MobilenetV3small/re_lu_5/Relu", "op": "_FusedConv2D", "input": ["StatefulPartitionedCall/model/MobilenetV3small/expanded_conv_1/project/BatchNorm/FusedBatchNormV3", "StatefulPartitionedCall/model/MobilenetV3small/expanded_conv_2/expand/Conv2D_weights", "StatefulPartitionedCall/model/MobilenetV3small/expanded_conv_2/expand/Conv2D_bn_offset"], "device": "/device:CPU:0", "attr": {"num_host_args": {"i": "0"}, "data_format": {"s": "TkhXQw=="}, "filter_format": {"s": "SFdJTw=="}, "strides": {"list": {"i": ["1", "1", "1", "1"]}}, "num_args": {"i": "1"}, "fused_ops": {"list": {"s": ["Qmlhc0FkZA==", "UmVsdQ=="]}}, "TArgs": {"list": {"type": ["DT_FLOAT"]}}, "padding": {"s": "U0FNRQ=="}, "use_cudnn_on_gpu": {"b": true}, "leakyrelu_alpha": {"f": 0.2}, "epsilon": {"f": 0.0}, "T": {"type": "DT_FLOAT"}, "explicit_paddings": {"list": {}}, "dilations": {"list": {"i": ["1", "1", "1", "1"]}}}}, {"name": "StatefulPartitionedCall/model/MobilenetV3small/expanded_conv_2/depthwise/depthwise", "op": "FusedDepthwiseConv2dNative", "input": ["StatefulPartitionedCall/model/MobilenetV3small/re_lu_5/Relu", "StatefulPartitionedCall/model/MobilenetV3small/expanded_conv_2/depthwise/depthwise_weights", "StatefulPartitionedCall/model/MobilenetV3small/expanded_conv_2/depthwise/depthwise_bn_offset"], "attr": {"padding": {"s": "U0FNRQ=="}, "data_format": {"s": "TkhXQw=="}, "fused_ops": {"list": {"s": ["Qmlhc0FkZA==", "UmVsdQ=="]}}, "num_args": {"i": "1"}, "strides": {"list": {"i": ["1", "1", "1", "1"]}}, "T": {"type": "DT_FLOAT"}, "explicit_paddings": {"list": {}}, "dilations": {"list": {"i": ["1", "1", "1", "1"]}}}}, {"name": "StatefulPartitionedCall/model/MobilenetV3small/expanded_conv_2/project/BatchNorm/FusedBatchNormV3", "op": "_FusedConv2D", "input": ["StatefulPartitionedCall/model/MobilenetV3small/expanded_conv_2/depthwise/depthwise", "StatefulPartitionedCall/model/MobilenetV3small/expanded_conv_2/project/Conv2D_weights", "StatefulPartitionedCall/model/MobilenetV3small/expanded_conv_2/project/Conv2D_bn_offset"], "device": "/device:CPU:0", "attr": {"num_host_args": {"i": "0"}, "data_format": {"s": "TkhXQw=="}, "filter_format": {"s": "SFdJTw=="}, "strides": {"list": {"i": ["1", "1", "1", "1"]}}, "num_args": {"i": "1"}, "fused_ops": {"list": {"s": ["Qmlhc0FkZA=="]}}, "TArgs": {"list": {"type": ["DT_FLOAT"]}}, "padding": {"s": "U0FNRQ=="}, "use_cudnn_on_gpu": {"b": true}, "leakyrelu_alpha": {"f": 0.2}, "epsilon": {"f": 0.0}, "T": {"type": "DT_FLOAT"}, "explicit_paddings": {"list": {}}, "dilations": {"list": {"i": ["1", "1", "1", "1"]}}}}, {"name": "StatefulPartitionedCall/model/MobilenetV3small/expanded_conv_2/Add/add", "op": "AddV2", "input": ["StatefulPartitionedCall/model/MobilenetV3small/expanded_conv_1/project/BatchNorm/FusedBatchNormV3", "StatefulPartitionedCall/model/MobilenetV3small/expanded_conv_2/project/BatchNorm/FusedBatchNormV3"], "attr": {"T": {"type": "DT_FLOAT"}}}, {"name": "StatefulPartitionedCall/model/MobilenetV3small/expanded_conv_3/expand/BatchNorm/FusedBatchNormV3", "op": "_FusedConv2D", "input": ["StatefulPartitionedCall/model/MobilenetV3small/expanded_conv_2/Add/add", "StatefulPartitionedCall/model/MobilenetV3small/expanded_conv_3/expand/Conv2D_weights", "StatefulPartitionedCall/model/MobilenetV3small/expanded_conv_3/expand/Conv2D_bn_offset"], "device": "/device:CPU:0", "attr": {"num_host_args": {"i": "0"}, "data_format": {"s": "TkhXQw=="}, "filter_format": {"s": "SFdJTw=="}, "fused_ops": {"list": {"s": ["Qmlhc0FkZA=="]}}, "num_args": {"i": "1"}, "strides": {"list": {"i": ["1", "1", "1", "1"]}}, "TArgs": {"list": {"type": ["DT_FLOAT"]}}, "padding": {"s": "U0FNRQ=="}, "use_cudnn_on_gpu": {"b": true}, "leakyrelu_alpha": {"f": 0.2}, "epsilon": {"f": 0.0}, "T": {"type": "DT_FLOAT"}, "explicit_paddings": {"list": {}}, "dilations": {"list": {"i": ["1", "1", "1", "1"]}}}}, {"name": "StatefulPartitionedCall/model/MobilenetV3small/tf.math.multiply_2/Mul", "op": "Mul", "input": ["StatefulPartitionedCall/model/MobilenetV3small/tf.math.multiply_2/Mul/y", "StatefulPartitionedCall/model/MobilenetV3small/expanded_conv_3/expand/BatchNorm/FusedBatchNormV3"], "attr": {"_grappler_ArithmeticOptimizer_MinimizeBroadcasts": {"b": true}, "T": {"type": "DT_FLOAT"}}}, {"name": "StatefulPartitionedCall/model/MobilenetV3small/tf.__operators__.add_2/AddV2", "op": "AddV2", "input": ["StatefulPartitionedCall/model/MobilenetV3small/expanded_conv_3/expand/BatchNorm/FusedBatchNormV3", "StatefulPartitionedCall/model/MobilenetV3small/tf.__operators__.add_2/y"], "attr": {"T": {"type": "DT_FLOAT"}}}, {"name": "StatefulPartitionedCall/model/MobilenetV3small/re_lu_7/Relu6", "op": "Relu6", "input": ["StatefulPartitionedCall/model/MobilenetV3small/tf.__operators__.add_2/AddV2"], "attr": {"T": {"type": "DT_FLOAT"}}}, {"name": "StatefulPartitionedCall/model/MobilenetV3small/multiply_1/mul", "op": "Mul", "input": ["StatefulPartitionedCall/model/MobilenetV3small/tf.math.multiply_2/Mul", "StatefulPartitionedCall/model/MobilenetV3small/re_lu_7/Relu6"], "attr": {"_grappler_ArithmeticOptimizer_MinimizeBroadcasts": {"b": true}, "T": {"type": "DT_FLOAT"}}}, {"name": "StatefulPartitionedCall/model/MobilenetV3small/expanded_conv_3/depthwise/pad/Pad", "op": "Pad", "input": ["StatefulPartitionedCall/model/MobilenetV3small/multiply_1/mul", "StatefulPartitionedCall/model/MobilenetV3small/expanded_conv_3/depthwise/pad/Pad/paddings"], "attr": {"Tpaddings": {"type": "DT_INT32"}, "T": {"type": "DT_FLOAT"}}}, {"name": "StatefulPartitionedCall/model/MobilenetV3small/expanded_conv_3/depthwise/depthwise", "op": "FusedDepthwiseConv2dNative", "input": ["StatefulPartitionedCall/model/MobilenetV3small/expanded_conv_3/depthwise/pad/Pad", "StatefulPartitionedCall/model/MobilenetV3small/expanded_conv_3/depthwise/depthwise_weights", "StatefulPartitionedCall/model/MobilenetV3small/expanded_conv_3/depthwise/depthwise_bn_offset"], "attr": {"padding": {"s": "VkFMSUQ="}, "data_format": {"s": "TkhXQw=="}, "strides": {"list": {"i": ["1", "2", "2", "1"]}}, "num_args": {"i": "1"}, "fused_ops": {"list": {"s": ["Qmlhc0FkZA=="]}}, "T": {"type": "DT_FLOAT"}, "explicit_paddings": {"list": {}}, "dilations": {"list": {"i": ["1", "1", "1", "1"]}}}}, {"name": "StatefulPartitionedCall/model/MobilenetV3small/tf.math.multiply_3/Mul", "op": "Mul", "input": ["StatefulPartitionedCall/model/MobilenetV3small/tf.math.multiply_3/Mul/y", "StatefulPartitionedCall/model/MobilenetV3small/expanded_conv_3/depthwise/depthwise"], "attr": {"_grappler_ArithmeticOptimizer_MinimizeBroadcasts": {"b": true}, "T": {"type": "DT_FLOAT"}}}, {"name": "StatefulPartitionedCall/model/MobilenetV3small/tf.__operators__.add_3/AddV2", "op": "AddV2", "input": ["StatefulPartitionedCall/model/MobilenetV3small/expanded_conv_3/depthwise/depthwise", "StatefulPartitionedCall/model/MobilenetV3small/tf.__operators__.add_3/y"], "attr": {"T": {"type": "DT_FLOAT"}}}, {"name": "StatefulPartitionedCall/model/MobilenetV3small/re_lu_8/Relu6", "op": "Relu6", "input": ["StatefulPartitionedCall/model/MobilenetV3small/tf.__operators__.add_3/AddV2"], "attr": {"T": {"type": "DT_FLOAT"}}}, {"name": "StatefulPartitionedCall/model/MobilenetV3small/multiply_2/mul", "op": "Mul", "input": ["StatefulPartitionedCall/model/MobilenetV3small/tf.math.multiply_3/Mul", "StatefulPartitionedCall/model/MobilenetV3small/re_lu_8/Relu6"], "attr": {"_grappler_ArithmeticOptimizer_MinimizeBroadcasts": {"b": true}, "T": {"type": "DT_FLOAT"}}}, {"name": "StatefulPartitionedCall/model/MobilenetV3small/expanded_conv_3/squeeze_excite/AvgPool/Mean", "op": "Mean", "input": ["StatefulPartitionedCall/model/MobilenetV3small/multiply_2/mul", "StatefulPartitionedCall/model/MobilenetV3small/expanded_conv_3/squeeze_excite/AvgPool/Mean/reduction_indices"], "attr": {"Tidx": {"type": "DT_INT32"}, "T": {"type": "DT_FLOAT"}, "keep_dims": {"b": true}}}, {"name": "StatefulPartitionedCall/model/MobilenetV3small/expanded_conv_3/squeeze_excite/Relu/Relu", "op": "_FusedConv2D", "input": ["StatefulPartitionedCall/model/MobilenetV3small/expanded_conv_3/squeeze_excite/AvgPool/Mean", "StatefulPartitionedCall/model/MobilenetV3small/expanded_conv_3/squeeze_excite/Conv/Conv2D/ReadVariableOp", "StatefulPartitionedCall/model/MobilenetV3small/expanded_conv_3/squeeze_excite/Conv/BiasAdd/ReadVariableOp"], "device": "/device:CPU:0", "attr": {"num_host_args": {"i": "0"}, "data_format": {"s": "TkhXQw=="}, "filter_format": {"s": "SFdJTw=="}, "strides": {"list": {"i": ["1", "1", "1", "1"]}}, "num_args": {"i": "1"}, "fused_ops": {"list": {"s": ["Qmlhc0FkZA==", "UmVsdQ=="]}}, "TArgs": {"list": {"type": ["DT_FLOAT"]}}, "padding": {"s": "U0FNRQ=="}, "use_cudnn_on_gpu": {"b": true}, "leakyrelu_alpha": {"f": 0.2}, "epsilon": {"f": 0.0}, "T": {"type": "DT_FLOAT"}, "explicit_paddings": {"list": {}}, "dilations": {"list": {"i": ["1", "1", "1", "1"]}}}}, {"name": "StatefulPartitionedCall/model/MobilenetV3small/expanded_conv_3/squeeze_excite/Conv_1/BiasAdd", "op": "_FusedConv2D", "input": ["StatefulPartitionedCall/model/MobilenetV3small/expanded_conv_3/squeeze_excite/Relu/Relu", "StatefulPartitionedCall/model/MobilenetV3small/expanded_conv_3/squeeze_excite/Conv_1/Conv2D/ReadVariableOp", "StatefulPartitionedCall/model/MobilenetV3small/expanded_conv_3/squeeze_excite/Conv_1/BiasAdd/ReadVariableOp"], "device": "/device:CPU:0", "attr": {"num_host_args": {"i": "0"}, "data_format": {"s": "TkhXQw=="}, "filter_format": {"s": "SFdJTw=="}, "fused_ops": {"list": {"s": ["Qmlhc0FkZA=="]}}, "num_args": {"i": "1"}, "strides": {"list": {"i": ["1", "1", "1", "1"]}}, "TArgs": {"list": {"type": ["DT_FLOAT"]}}, "padding": {"s": "U0FNRQ=="}, "use_cudnn_on_gpu": {"b": true}, "leakyrelu_alpha": {"f": 0.2}, "epsilon": {"f": 0.0}, "T": {"type": "DT_FLOAT"}, "explicit_paddings": {"list": {}}, "dilations": {"list": {"i": ["1", "1", "1", "1"]}}}}, {"name": "StatefulPartitionedCall/model/MobilenetV3small/tf.__operators__.add_4/AddV2", "op": "AddV2", "input": ["StatefulPartitionedCall/model/MobilenetV3small/expanded_conv_3/squeeze_excite/Conv_1/BiasAdd", "StatefulPartitionedCall/model/MobilenetV3small/tf.__operators__.add_4/y"], "attr": {"T": {"type": "DT_FLOAT"}}}, {"name": "StatefulPartitionedCall/model/MobilenetV3small/re_lu_9/Relu6", "op": "Relu6", "input": ["StatefulPartitionedCall/model/MobilenetV3small/tf.__operators__.add_4/AddV2"], "attr": {"T": {"type": "DT_FLOAT"}}}, {"name": "StatefulPartitionedCall/model/MobilenetV3small/tf.math.multiply_4/Mul", "op": "Mul", "input": ["StatefulPartitionedCall/model/MobilenetV3small/tf.math.multiply_4/Mul/y", "StatefulPartitionedCall/model/MobilenetV3small/re_lu_9/Relu6"], "attr": {"_grappler_ArithmeticOptimizer_MinimizeBroadcasts": {"b": true}, "T": {"type": "DT_FLOAT"}}}, {"name": "StatefulPartitionedCall/model/MobilenetV3small/expanded_conv_3/squeeze_excite/Mul/mul", "op": "Mul", "input": ["StatefulPartitionedCall/model/MobilenetV3small/tf.math.multiply_4/Mul", "StatefulPartitionedCall/model/MobilenetV3small/multiply_2/mul"], "attr": {"_grappler_ArithmeticOptimizer_MinimizeBroadcasts": {"b": true}, "T": {"type": "DT_FLOAT"}}}, {"name": "StatefulPartitionedCall/model/MobilenetV3small/expanded_conv_3/project/BatchNorm/FusedBatchNormV3", "op": "_FusedConv2D", "input": ["StatefulPartitionedCall/model/MobilenetV3small/expanded_conv_3/squeeze_excite/Mul/mul", "StatefulPartitionedCall/model/MobilenetV3small/expanded_conv_3/project/Conv2D_weights", "StatefulPartitionedCall/model/MobilenetV3small/expanded_conv_3/project/Conv2D_bn_offset"], "device": "/device:CPU:0", "attr": {"num_host_args": {"i": "0"}, "data_format": {"s": "TkhXQw=="}, "filter_format": {"s": "SFdJTw=="}, "fused_ops": {"list": {"s": ["Qmlhc0FkZA=="]}}, "num_args": {"i": "1"}, "strides": {"list": {"i": ["1", "1", "1", "1"]}}, "TArgs": {"list": {"type": ["DT_FLOAT"]}}, "padding": {"s": "U0FNRQ=="}, "use_cudnn_on_gpu": {"b": true}, "leakyrelu_alpha": {"f": 0.2}, "epsilon": {"f": 0.0}, "T": {"type": "DT_FLOAT"}, "explicit_paddings": {"list": {}}, "dilations": {"list": {"i": ["1", "1", "1", "1"]}}}}, {"name": "StatefulPartitionedCall/model/MobilenetV3small/expanded_conv_4/expand/BatchNorm/FusedBatchNormV3", "op": "_FusedConv2D", "input": ["StatefulPartitionedCall/model/MobilenetV3small/expanded_conv_3/project/BatchNorm/FusedBatchNormV3", "StatefulPartitionedCall/model/MobilenetV3small/expanded_conv_4/expand/Conv2D_weights", "StatefulPartitionedCall/model/MobilenetV3small/expanded_conv_4/expand/Conv2D_bn_offset"], "device": "/device:CPU:0", "attr": {"num_host_args": {"i": "0"}, "data_format": {"s": "TkhXQw=="}, "filter_format": {"s": "SFdJTw=="}, "fused_ops": {"list": {"s": ["Qmlhc0FkZA=="]}}, "num_args": {"i": "1"}, "strides": {"list": {"i": ["1", "1", "1", "1"]}}, "TArgs": {"list": {"type": ["DT_FLOAT"]}}, "padding": {"s": "U0FNRQ=="}, "use_cudnn_on_gpu": {"b": true}, "leakyrelu_alpha": {"f": 0.2}, "epsilon": {"f": 0.0}, "T": {"type": "DT_FLOAT"}, "explicit_paddings": {"list": {}}, "dilations": {"list": {"i": ["1", "1", "1", "1"]}}}}, {"name": "StatefulPartitionedCall/model/MobilenetV3small/tf.math.multiply_5/Mul", "op": "Mul", "input": ["StatefulPartitionedCall/model/MobilenetV3small/tf.math.multiply_5/Mul/y", "StatefulPartitionedCall/model/MobilenetV3small/expanded_conv_4/expand/BatchNorm/FusedBatchNormV3"], "attr": {"_grappler_ArithmeticOptimizer_MinimizeBroadcasts": {"b": true}, "T": {"type": "DT_FLOAT"}}}, {"name": "StatefulPartitionedCall/model/MobilenetV3small/tf.__operators__.add_5/AddV2", "op": "AddV2", "input": ["StatefulPartitionedCall/model/MobilenetV3small/expanded_conv_4/expand/BatchNorm/FusedBatchNormV3", "StatefulPartitionedCall/model/MobilenetV3small/tf.__operators__.add_5/y"], "attr": {"T": {"type": "DT_FLOAT"}}}, {"name": "StatefulPartitionedCall/model/MobilenetV3small/re_lu_10/Relu6", "op": "Relu6", "input": ["StatefulPartitionedCall/model/MobilenetV3small/tf.__operators__.add_5/AddV2"], "attr": {"T": {"type": "DT_FLOAT"}}}, {"name": "StatefulPartitionedCall/model/MobilenetV3small/multiply_3/mul", "op": "Mul", "input": ["StatefulPartitionedCall/model/MobilenetV3small/tf.math.multiply_5/Mul", "StatefulPartitionedCall/model/MobilenetV3small/re_lu_10/Relu6"], "attr": {"_grappler_ArithmeticOptimizer_MinimizeBroadcasts": {"b": true}, "T": {"type": "DT_FLOAT"}}}, {"name": "StatefulPartitionedCall/model/MobilenetV3small/expanded_conv_4/depthwise/depthwise", "op": "FusedDepthwiseConv2dNative", "input": ["StatefulPartitionedCall/model/MobilenetV3small/multiply_3/mul", "StatefulPartitionedCall/model/MobilenetV3small/expanded_conv_4/depthwise/depthwise_weights", "StatefulPartitionedCall/model/MobilenetV3small/expanded_conv_4/depthwise/depthwise_bn_offset"], "attr": {"padding": {"s": "U0FNRQ=="}, "data_format": {"s": "TkhXQw=="}, "strides": {"list": {"i": ["1", "1", "1", "1"]}}, "num_args": {"i": "1"}, "fused_ops": {"list": {"s": ["Qmlhc0FkZA=="]}}, "T": {"type": "DT_FLOAT"}, "explicit_paddings": {"list": {}}, "dilations": {"list": {"i": ["1", "1", "1", "1"]}}}}, {"name": "StatefulPartitionedCall/model/MobilenetV3small/tf.math.multiply_6/Mul", "op": "Mul", "input": ["StatefulPartitionedCall/model/MobilenetV3small/tf.math.multiply_6/Mul/y", "StatefulPartitionedCall/model/MobilenetV3small/expanded_conv_4/depthwise/depthwise"], "attr": {"_grappler_ArithmeticOptimizer_MinimizeBroadcasts": {"b": true}, "T": {"type": "DT_FLOAT"}}}, {"name": "StatefulPartitionedCall/model/MobilenetV3small/tf.__operators__.add_6/AddV2", "op": "AddV2", "input": ["StatefulPartitionedCall/model/MobilenetV3small/expanded_conv_4/depthwise/depthwise", "StatefulPartitionedCall/model/MobilenetV3small/tf.__operators__.add_6/y"], "attr": {"T": {"type": "DT_FLOAT"}}}, {"name": "StatefulPartitionedCall/model/MobilenetV3small/re_lu_11/Relu6", "op": "Relu6", "input": ["StatefulPartitionedCall/model/MobilenetV3small/tf.__operators__.add_6/AddV2"], "attr": {"T": {"type": "DT_FLOAT"}}}, {"name": "StatefulPartitionedCall/model/MobilenetV3small/multiply_4/mul", "op": "Mul", "input": ["StatefulPartitionedCall/model/MobilenetV3small/tf.math.multiply_6/Mul", "StatefulPartitionedCall/model/MobilenetV3small/re_lu_11/Relu6"], "attr": {"_grappler_ArithmeticOptimizer_MinimizeBroadcasts": {"b": true}, "T": {"type": "DT_FLOAT"}}}, {"name": "StatefulPartitionedCall/model/MobilenetV3small/expanded_conv_4/squeeze_excite/AvgPool/Mean", "op": "Mean", "input": ["StatefulPartitionedCall/model/MobilenetV3small/multiply_4/mul", "StatefulPartitionedCall/model/MobilenetV3small/expanded_conv_4/squeeze_excite/AvgPool/Mean/reduction_indices"], "attr": {"T": {"type": "DT_FLOAT"}, "Tidx": {"type": "DT_INT32"}, "keep_dims": {"b": true}}}, {"name": "StatefulPartitionedCall/model/MobilenetV3small/expanded_conv_4/squeeze_excite/Relu/Relu", "op": "_FusedConv2D", "input": ["StatefulPartitionedCall/model/MobilenetV3small/expanded_conv_4/squeeze_excite/AvgPool/Mean", "StatefulPartitionedCall/model/MobilenetV3small/expanded_conv_4/squeeze_excite/Conv/Conv2D/ReadVariableOp", "StatefulPartitionedCall/model/MobilenetV3small/expanded_conv_4/squeeze_excite/Conv/BiasAdd/ReadVariableOp"], "device": "/device:CPU:0", "attr": {"num_host_args": {"i": "0"}, "data_format": {"s": "TkhXQw=="}, "filter_format": {"s": "SFdJTw=="}, "strides": {"list": {"i": ["1", "1", "1", "1"]}}, "num_args": {"i": "1"}, "fused_ops": {"list": {"s": ["Qmlhc0FkZA==", "UmVsdQ=="]}}, "TArgs": {"list": {"type": ["DT_FLOAT"]}}, "padding": {"s": "U0FNRQ=="}, "use_cudnn_on_gpu": {"b": true}, "leakyrelu_alpha": {"f": 0.2}, "epsilon": {"f": 0.0}, "T": {"type": "DT_FLOAT"}, "explicit_paddings": {"list": {}}, "dilations": {"list": {"i": ["1", "1", "1", "1"]}}}}, {"name": "StatefulPartitionedCall/model/MobilenetV3small/expanded_conv_4/squeeze_excite/Conv_1/BiasAdd", "op": "_FusedConv2D", "input": ["StatefulPartitionedCall/model/MobilenetV3small/expanded_conv_4/squeeze_excite/Relu/Relu", "StatefulPartitionedCall/model/MobilenetV3small/expanded_conv_4/squeeze_excite/Conv_1/Conv2D/ReadVariableOp", "StatefulPartitionedCall/model/MobilenetV3small/expanded_conv_4/squeeze_excite/Conv_1/BiasAdd/ReadVariableOp"], "device": "/device:CPU:0", "attr": {"num_host_args": {"i": "0"}, "data_format": {"s": "TkhXQw=="}, "filter_format": {"s": "SFdJTw=="}, "strides": {"list": {"i": ["1", "1", "1", "1"]}}, "num_args": {"i": "1"}, "fused_ops": {"list": {"s": ["Qmlhc0FkZA=="]}}, "TArgs": {"list": {"type": ["DT_FLOAT"]}}, "padding": {"s": "U0FNRQ=="}, "use_cudnn_on_gpu": {"b": true}, "leakyrelu_alpha": {"f": 0.2}, "epsilon": {"f": 0.0}, "T": {"type": "DT_FLOAT"}, "explicit_paddings": {"list": {}}, "dilations": {"list": {"i": ["1", "1", "1", "1"]}}}}, {"name": "StatefulPartitionedCall/model/MobilenetV3small/tf.__operators__.add_7/AddV2", "op": "AddV2", "input": ["StatefulPartitionedCall/model/MobilenetV3small/expanded_conv_4/squeeze_excite/Conv_1/BiasAdd", "StatefulPartitionedCall/model/MobilenetV3small/tf.__operators__.add_7/y"], "attr": {"T": {"type": "DT_FLOAT"}}}, {"name": "StatefulPartitionedCall/model/MobilenetV3small/re_lu_12/Relu6", "op": "Relu6", "input": ["StatefulPartitionedCall/model/MobilenetV3small/tf.__operators__.add_7/AddV2"], "attr": {"T": {"type": "DT_FLOAT"}}}, {"name": "StatefulPartitionedCall/model/MobilenetV3small/tf.math.multiply_7/Mul", "op": "Mul", "input": ["StatefulPartitionedCall/model/MobilenetV3small/tf.math.multiply_7/Mul/y", "StatefulPartitionedCall/model/MobilenetV3small/re_lu_12/Relu6"], "attr": {"_grappler_ArithmeticOptimizer_MinimizeBroadcasts": {"b": true}, "T": {"type": "DT_FLOAT"}}}, {"name": "StatefulPartitionedCall/model/MobilenetV3small/expanded_conv_4/squeeze_excite/Mul/mul", "op": "Mul", "input": ["StatefulPartitionedCall/model/MobilenetV3small/tf.math.multiply_7/Mul", "StatefulPartitionedCall/model/MobilenetV3small/multiply_4/mul"], "attr": {"_grappler_ArithmeticOptimizer_MinimizeBroadcasts": {"b": true}, "T": {"type": "DT_FLOAT"}}}, {"name": "StatefulPartitionedCall/model/MobilenetV3small/expanded_conv_4/project/BatchNorm/FusedBatchNormV3", "op": "_FusedConv2D", "input": ["StatefulPartitionedCall/model/MobilenetV3small/expanded_conv_4/squeeze_excite/Mul/mul", "StatefulPartitionedCall/model/MobilenetV3small/expanded_conv_4/project/Conv2D_weights", "StatefulPartitionedCall/model/MobilenetV3small/expanded_conv_4/project/Conv2D_bn_offset"], "device": "/device:CPU:0", "attr": {"num_host_args": {"i": "0"}, "data_format": {"s": "TkhXQw=="}, "filter_format": {"s": "SFdJTw=="}, "fused_ops": {"list": {"s": ["Qmlhc0FkZA=="]}}, "num_args": {"i": "1"}, "strides": {"list": {"i": ["1", "1", "1", "1"]}}, "TArgs": {"list": {"type": ["DT_FLOAT"]}}, "padding": {"s": "U0FNRQ=="}, "use_cudnn_on_gpu": {"b": true}, "leakyrelu_alpha": {"f": 0.2}, "epsilon": {"f": 0.0}, "T": {"type": "DT_FLOAT"}, "explicit_paddings": {"list": {}}, "dilations": {"list": {"i": ["1", "1", "1", "1"]}}}}, {"name": "StatefulPartitionedCall/model/MobilenetV3small/expanded_conv_4/Add/add", "op": "AddV2", "input": ["StatefulPartitionedCall/model/MobilenetV3small/expanded_conv_3/project/BatchNorm/FusedBatchNormV3", "StatefulPartitionedCall/model/MobilenetV3small/expanded_conv_4/project/BatchNorm/FusedBatchNormV3"], "attr": {"T": {"type": "DT_FLOAT"}}}, {"name": "StatefulPartitionedCall/model/MobilenetV3small/expanded_conv_5/expand/BatchNorm/FusedBatchNormV3", "op": "_FusedConv2D", "input": ["StatefulPartitionedCall/model/MobilenetV3small/expanded_conv_4/Add/add", "StatefulPartitionedCall/model/MobilenetV3small/expanded_conv_5/expand/Conv2D_weights", "StatefulPartitionedCall/model/MobilenetV3small/expanded_conv_5/expand/Conv2D_bn_offset"], "device": "/device:CPU:0", "attr": {"num_host_args": {"i": "0"}, "data_format": {"s": "TkhXQw=="}, "filter_format": {"s": "SFdJTw=="}, "fused_ops": {"list": {"s": ["Qmlhc0FkZA=="]}}, "num_args": {"i": "1"}, "strides": {"list": {"i": ["1", "1", "1", "1"]}}, "TArgs": {"list": {"type": ["DT_FLOAT"]}}, "padding": {"s": "U0FNRQ=="}, "use_cudnn_on_gpu": {"b": true}, "leakyrelu_alpha": {"f": 0.2}, "epsilon": {"f": 0.0}, "T": {"type": "DT_FLOAT"}, "explicit_paddings": {"list": {}}, "dilations": {"list": {"i": ["1", "1", "1", "1"]}}}}, {"name": "StatefulPartitionedCall/model/MobilenetV3small/tf.math.multiply_8/Mul", "op": "Mul", "input": ["StatefulPartitionedCall/model/MobilenetV3small/tf.math.multiply_8/Mul/y", "StatefulPartitionedCall/model/MobilenetV3small/expanded_conv_5/expand/BatchNorm/FusedBatchNormV3"], "attr": {"_grappler_ArithmeticOptimizer_MinimizeBroadcasts": {"b": true}, "T": {"type": "DT_FLOAT"}}}, {"name": "StatefulPartitionedCall/model/MobilenetV3small/tf.__operators__.add_8/AddV2", "op": "AddV2", "input": ["StatefulPartitionedCall/model/MobilenetV3small/expanded_conv_5/expand/BatchNorm/FusedBatchNormV3", "StatefulPartitionedCall/model/MobilenetV3small/tf.__operators__.add_8/y"], "attr": {"T": {"type": "DT_FLOAT"}}}, {"name": "StatefulPartitionedCall/model/MobilenetV3small/re_lu_13/Relu6", "op": "Relu6", "input": ["StatefulPartitionedCall/model/MobilenetV3small/tf.__operators__.add_8/AddV2"], "attr": {"T": {"type": "DT_FLOAT"}}}, {"name": "StatefulPartitionedCall/model/MobilenetV3small/multiply_5/mul", "op": "Mul", "input": ["StatefulPartitionedCall/model/MobilenetV3small/tf.math.multiply_8/Mul", "StatefulPartitionedCall/model/MobilenetV3small/re_lu_13/Relu6"], "attr": {"_grappler_ArithmeticOptimizer_MinimizeBroadcasts": {"b": true}, "T": {"type": "DT_FLOAT"}}}, {"name": "StatefulPartitionedCall/model/MobilenetV3small/expanded_conv_5/depthwise/depthwise", "op": "FusedDepthwiseConv2dNative", "input": ["StatefulPartitionedCall/model/MobilenetV3small/multiply_5/mul", "StatefulPartitionedCall/model/MobilenetV3small/expanded_conv_5/depthwise/depthwise_weights", "StatefulPartitionedCall/model/MobilenetV3small/expanded_conv_5/depthwise/depthwise_bn_offset"], "attr": {"padding": {"s": "U0FNRQ=="}, "data_format": {"s": "TkhXQw=="}, "strides": {"list": {"i": ["1", "1", "1", "1"]}}, "num_args": {"i": "1"}, "fused_ops": {"list": {"s": ["Qmlhc0FkZA=="]}}, "T": {"type": "DT_FLOAT"}, "explicit_paddings": {"list": {}}, "dilations": {"list": {"i": ["1", "1", "1", "1"]}}}}, {"name": "StatefulPartitionedCall/model/MobilenetV3small/tf.math.multiply_9/Mul", "op": "Mul", "input": ["StatefulPartitionedCall/model/MobilenetV3small/tf.math.multiply_9/Mul/y", "StatefulPartitionedCall/model/MobilenetV3small/expanded_conv_5/depthwise/depthwise"], "attr": {"_grappler_ArithmeticOptimizer_MinimizeBroadcasts": {"b": true}, "T": {"type": "DT_FLOAT"}}}, {"name": "StatefulPartitionedCall/model/MobilenetV3small/tf.__operators__.add_9/AddV2", "op": "AddV2", "input": ["StatefulPartitionedCall/model/MobilenetV3small/expanded_conv_5/depthwise/depthwise", "StatefulPartitionedCall/model/MobilenetV3small/tf.__operators__.add_9/y"], "attr": {"T": {"type": "DT_FLOAT"}}}, {"name": "StatefulPartitionedCall/model/MobilenetV3small/re_lu_14/Relu6", "op": "Relu6", "input": ["StatefulPartitionedCall/model/MobilenetV3small/tf.__operators__.add_9/AddV2"], "attr": {"T": {"type": "DT_FLOAT"}}}, {"name": "StatefulPartitionedCall/model/MobilenetV3small/multiply_6/mul", "op": "Mul", "input": ["StatefulPartitionedCall/model/MobilenetV3small/tf.math.multiply_9/Mul", "StatefulPartitionedCall/model/MobilenetV3small/re_lu_14/Relu6"], "attr": {"_grappler_ArithmeticOptimizer_MinimizeBroadcasts": {"b": true}, "T": {"type": "DT_FLOAT"}}}, {"name": "StatefulPartitionedCall/model/MobilenetV3small/expanded_conv_5/squeeze_excite/AvgPool/Mean", "op": "Mean", "input": ["StatefulPartitionedCall/model/MobilenetV3small/multiply_6/mul", "StatefulPartitionedCall/model/MobilenetV3small/expanded_conv_5/squeeze_excite/AvgPool/Mean/reduction_indices"], "attr": {"Tidx": {"type": "DT_INT32"}, "T": {"type": "DT_FLOAT"}, "keep_dims": {"b": true}}}, {"name": "StatefulPartitionedCall/model/MobilenetV3small/expanded_conv_5/squeeze_excite/Relu/Relu", "op": "_FusedConv2D", "input": ["StatefulPartitionedCall/model/MobilenetV3small/expanded_conv_5/squeeze_excite/AvgPool/Mean", "StatefulPartitionedCall/model/MobilenetV3small/expanded_conv_5/squeeze_excite/Conv/Conv2D/ReadVariableOp", "StatefulPartitionedCall/model/MobilenetV3small/expanded_conv_5/squeeze_excite/Conv/BiasAdd/ReadVariableOp"], "device": "/device:CPU:0", "attr": {"num_host_args": {"i": "0"}, "data_format": {"s": "TkhXQw=="}, "filter_format": {"s": "SFdJTw=="}, "strides": {"list": {"i": ["1", "1", "1", "1"]}}, "num_args": {"i": "1"}, "fused_ops": {"list": {"s": ["Qmlhc0FkZA==", "UmVsdQ=="]}}, "TArgs": {"list": {"type": ["DT_FLOAT"]}}, "padding": {"s": "U0FNRQ=="}, "use_cudnn_on_gpu": {"b": true}, "leakyrelu_alpha": {"f": 0.2}, "epsilon": {"f": 0.0}, "T": {"type": "DT_FLOAT"}, "explicit_paddings": {"list": {}}, "dilations": {"list": {"i": ["1", "1", "1", "1"]}}}}, {"name": "StatefulPartitionedCall/model/MobilenetV3small/expanded_conv_5/squeeze_excite/Conv_1/BiasAdd", "op": "_FusedConv2D", "input": ["StatefulPartitionedCall/model/MobilenetV3small/expanded_conv_5/squeeze_excite/Relu/Relu", "StatefulPartitionedCall/model/MobilenetV3small/expanded_conv_5/squeeze_excite/Conv_1/Conv2D/ReadVariableOp", "StatefulPartitionedCall/model/MobilenetV3small/expanded_conv_5/squeeze_excite/Conv_1/BiasAdd/ReadVariableOp"], "device": "/device:CPU:0", "attr": {"num_host_args": {"i": "0"}, "data_format": {"s": "TkhXQw=="}, "filter_format": {"s": "SFdJTw=="}, "strides": {"list": {"i": ["1", "1", "1", "1"]}}, "num_args": {"i": "1"}, "fused_ops": {"list": {"s": ["Qmlhc0FkZA=="]}}, "TArgs": {"list": {"type": ["DT_FLOAT"]}}, "padding": {"s": "U0FNRQ=="}, "use_cudnn_on_gpu": {"b": true}, "leakyrelu_alpha": {"f": 0.2}, "epsilon": {"f": 0.0}, "T": {"type": "DT_FLOAT"}, "explicit_paddings": {"list": {}}, "dilations": {"list": {"i": ["1", "1", "1", "1"]}}}}, {"name": "StatefulPartitionedCall/model/MobilenetV3small/tf.__operators__.add_10/AddV2", "op": "AddV2", "input": ["StatefulPartitionedCall/model/MobilenetV3small/expanded_conv_5/squeeze_excite/Conv_1/BiasAdd", "StatefulPartitionedCall/model/MobilenetV3small/tf.__operators__.add_10/y"], "attr": {"T": {"type": "DT_FLOAT"}}}, {"name": "StatefulPartitionedCall/model/MobilenetV3small/re_lu_15/Relu6", "op": "Relu6", "input": ["StatefulPartitionedCall/model/MobilenetV3small/tf.__operators__.add_10/AddV2"], "attr": {"T": {"type": "DT_FLOAT"}}}, {"name": "StatefulPartitionedCall/model/MobilenetV3small/tf.math.multiply_10/Mul", "op": "Mul", "input": ["StatefulPartitionedCall/model/MobilenetV3small/tf.math.multiply_10/Mul/y", "StatefulPartitionedCall/model/MobilenetV3small/re_lu_15/Relu6"], "attr": {"_grappler_ArithmeticOptimizer_MinimizeBroadcasts": {"b": true}, "T": {"type": "DT_FLOAT"}}}, {"name": "StatefulPartitionedCall/model/MobilenetV3small/expanded_conv_5/squeeze_excite/Mul/mul", "op": "Mul", "input": ["StatefulPartitionedCall/model/MobilenetV3small/tf.math.multiply_10/Mul", "StatefulPartitionedCall/model/MobilenetV3small/multiply_6/mul"], "attr": {"_grappler_ArithmeticOptimizer_MinimizeBroadcasts": {"b": true}, "T": {"type": "DT_FLOAT"}}}, {"name": "StatefulPartitionedCall/model/MobilenetV3small/expanded_conv_5/project/BatchNorm/FusedBatchNormV3", "op": "_FusedConv2D", "input": ["StatefulPartitionedCall/model/MobilenetV3small/expanded_conv_5/squeeze_excite/Mul/mul", "StatefulPartitionedCall/model/MobilenetV3small/expanded_conv_5/project/Conv2D_weights", "StatefulPartitionedCall/model/MobilenetV3small/expanded_conv_5/project/Conv2D_bn_offset"], "device": "/device:CPU:0", "attr": {"num_host_args": {"i": "0"}, "data_format": {"s": "TkhXQw=="}, "filter_format": {"s": "SFdJTw=="}, "strides": {"list": {"i": ["1", "1", "1", "1"]}}, "num_args": {"i": "1"}, "fused_ops": {"list": {"s": ["Qmlhc0FkZA=="]}}, "TArgs": {"list": {"type": ["DT_FLOAT"]}}, "padding": {"s": "U0FNRQ=="}, "use_cudnn_on_gpu": {"b": true}, "leakyrelu_alpha": {"f": 0.2}, "epsilon": {"f": 0.0}, "T": {"type": "DT_FLOAT"}, "explicit_paddings": {"list": {}}, "dilations": {"list": {"i": ["1", "1", "1", "1"]}}}}, {"name": "StatefulPartitionedCall/model/MobilenetV3small/expanded_conv_5/Add/add", "op": "AddV2", "input": ["StatefulPartitionedCall/model/MobilenetV3small/expanded_conv_4/Add/add", "StatefulPartitionedCall/model/MobilenetV3small/expanded_conv_5/project/BatchNorm/FusedBatchNormV3"], "attr": {"T": {"type": "DT_FLOAT"}}}, {"name": "StatefulPartitionedCall/model/MobilenetV3small/expanded_conv_6/expand/BatchNorm/FusedBatchNormV3", "op": "_FusedConv2D", "input": ["StatefulPartitionedCall/model/MobilenetV3small/expanded_conv_5/Add/add", "StatefulPartitionedCall/model/MobilenetV3small/expanded_conv_6/expand/Conv2D_weights", "StatefulPartitionedCall/model/MobilenetV3small/expanded_conv_6/expand/Conv2D_bn_offset"], "device": "/device:CPU:0", "attr": {"num_host_args": {"i": "0"}, "data_format": {"s": "TkhXQw=="}, "filter_format": {"s": "SFdJTw=="}, "fused_ops": {"list": {"s": ["Qmlhc0FkZA=="]}}, "num_args": {"i": "1"}, "strides": {"list": {"i": ["1", "1", "1", "1"]}}, "TArgs": {"list": {"type": ["DT_FLOAT"]}}, "padding": {"s": "U0FNRQ=="}, "use_cudnn_on_gpu": {"b": true}, "leakyrelu_alpha": {"f": 0.2}, "epsilon": {"f": 0.0}, "T": {"type": "DT_FLOAT"}, "explicit_paddings": {"list": {}}, "dilations": {"list": {"i": ["1", "1", "1", "1"]}}}}, {"name": "StatefulPartitionedCall/model/MobilenetV3small/tf.math.multiply_11/Mul", "op": "Mul", "input": ["StatefulPartitionedCall/model/MobilenetV3small/tf.math.multiply_11/Mul/y", "StatefulPartitionedCall/model/MobilenetV3small/expanded_conv_6/expand/BatchNorm/FusedBatchNormV3"], "attr": {"_grappler_ArithmeticOptimizer_MinimizeBroadcasts": {"b": true}, "T": {"type": "DT_FLOAT"}}}, {"name": "StatefulPartitionedCall/model/MobilenetV3small/tf.__operators__.add_11/AddV2", "op": "AddV2", "input": ["StatefulPartitionedCall/model/MobilenetV3small/expanded_conv_6/expand/BatchNorm/FusedBatchNormV3", "StatefulPartitionedCall/model/MobilenetV3small/tf.__operators__.add_11/y"], "attr": {"T": {"type": "DT_FLOAT"}}}, {"name": "StatefulPartitionedCall/model/MobilenetV3small/re_lu_16/Relu6", "op": "Relu6", "input": ["StatefulPartitionedCall/model/MobilenetV3small/tf.__operators__.add_11/AddV2"], "attr": {"T": {"type": "DT_FLOAT"}}}, {"name": "StatefulPartitionedCall/model/MobilenetV3small/multiply_7/mul", "op": "Mul", "input": ["StatefulPartitionedCall/model/MobilenetV3small/tf.math.multiply_11/Mul", "StatefulPartitionedCall/model/MobilenetV3small/re_lu_16/Relu6"], "attr": {"_grappler_ArithmeticOptimizer_MinimizeBroadcasts": {"b": true}, "T": {"type": "DT_FLOAT"}}}, {"name": "StatefulPartitionedCall/model/MobilenetV3small/expanded_conv_6/depthwise/depthwise", "op": "FusedDepthwiseConv2dNative", "input": ["StatefulPartitionedCall/model/MobilenetV3small/multiply_7/mul", "StatefulPartitionedCall/model/MobilenetV3small/expanded_conv_6/depthwise/depthwise_weights", "StatefulPartitionedCall/model/MobilenetV3small/expanded_conv_6/depthwise/depthwise_bn_offset"], "attr": {"padding": {"s": "U0FNRQ=="}, "data_format": {"s": "TkhXQw=="}, "strides": {"list": {"i": ["1", "1", "1", "1"]}}, "num_args": {"i": "1"}, "fused_ops": {"list": {"s": ["Qmlhc0FkZA=="]}}, "T": {"type": "DT_FLOAT"}, "explicit_paddings": {"list": {}}, "dilations": {"list": {"i": ["1", "1", "1", "1"]}}}}, {"name": "StatefulPartitionedCall/model/MobilenetV3small/tf.math.multiply_12/Mul", "op": "Mul", "input": ["StatefulPartitionedCall/model/MobilenetV3small/tf.math.multiply_12/Mul/y", "StatefulPartitionedCall/model/MobilenetV3small/expanded_conv_6/depthwise/depthwise"], "attr": {"_grappler_ArithmeticOptimizer_MinimizeBroadcasts": {"b": true}, "T": {"type": "DT_FLOAT"}}}, {"name": "StatefulPartitionedCall/model/MobilenetV3small/tf.__operators__.add_12/AddV2", "op": "AddV2", "input": ["StatefulPartitionedCall/model/MobilenetV3small/expanded_conv_6/depthwise/depthwise", "StatefulPartitionedCall/model/MobilenetV3small/tf.__operators__.add_12/y"], "attr": {"T": {"type": "DT_FLOAT"}}}, {"name": "StatefulPartitionedCall/model/MobilenetV3small/re_lu_17/Relu6", "op": "Relu6", "input": ["StatefulPartitionedCall/model/MobilenetV3small/tf.__operators__.add_12/AddV2"], "attr": {"T": {"type": "DT_FLOAT"}}}, {"name": "StatefulPartitionedCall/model/MobilenetV3small/multiply_8/mul", "op": "Mul", "input": ["StatefulPartitionedCall/model/MobilenetV3small/tf.math.multiply_12/Mul", "StatefulPartitionedCall/model/MobilenetV3small/re_lu_17/Relu6"], "attr": {"_grappler_ArithmeticOptimizer_MinimizeBroadcasts": {"b": true}, "T": {"type": "DT_FLOAT"}}}, {"name": "StatefulPartitionedCall/model/MobilenetV3small/expanded_conv_6/squeeze_excite/AvgPool/Mean", "op": "Mean", "input": ["StatefulPartitionedCall/model/MobilenetV3small/multiply_8/mul", "StatefulPartitionedCall/model/MobilenetV3small/expanded_conv_6/squeeze_excite/AvgPool/Mean/reduction_indices"], "attr": {"T": {"type": "DT_FLOAT"}, "Tidx": {"type": "DT_INT32"}, "keep_dims": {"b": true}}}, {"name": "StatefulPartitionedCall/model/MobilenetV3small/expanded_conv_6/squeeze_excite/Relu/Relu", "op": "_FusedConv2D", "input": ["StatefulPartitionedCall/model/MobilenetV3small/expanded_conv_6/squeeze_excite/AvgPool/Mean", "StatefulPartitionedCall/model/MobilenetV3small/expanded_conv_6/squeeze_excite/Conv/Conv2D/ReadVariableOp", "StatefulPartitionedCall/model/MobilenetV3small/expanded_conv_6/squeeze_excite/Conv/BiasAdd/ReadVariableOp"], "device": "/device:CPU:0", "attr": {"num_host_args": {"i": "0"}, "data_format": {"s": "TkhXQw=="}, "filter_format": {"s": "SFdJTw=="}, "strides": {"list": {"i": ["1", "1", "1", "1"]}}, "num_args": {"i": "1"}, "fused_ops": {"list": {"s": ["Qmlhc0FkZA==", "UmVsdQ=="]}}, "TArgs": {"list": {"type": ["DT_FLOAT"]}}, "padding": {"s": "U0FNRQ=="}, "use_cudnn_on_gpu": {"b": true}, "leakyrelu_alpha": {"f": 0.2}, "epsilon": {"f": 0.0}, "T": {"type": "DT_FLOAT"}, "explicit_paddings": {"list": {}}, "dilations": {"list": {"i": ["1", "1", "1", "1"]}}}}, {"name": "StatefulPartitionedCall/model/MobilenetV3small/expanded_conv_6/squeeze_excite/Conv_1/BiasAdd", "op": "_FusedConv2D", "input": ["StatefulPartitionedCall/model/MobilenetV3small/expanded_conv_6/squeeze_excite/Relu/Relu", "StatefulPartitionedCall/model/MobilenetV3small/expanded_conv_6/squeeze_excite/Conv_1/Conv2D/ReadVariableOp", "StatefulPartitionedCall/model/MobilenetV3small/expanded_conv_6/squeeze_excite/Conv_1/BiasAdd/ReadVariableOp"], "device": "/device:CPU:0", "attr": {"num_host_args": {"i": "0"}, "data_format": {"s": "TkhXQw=="}, "filter_format": {"s": "SFdJTw=="}, "strides": {"list": {"i": ["1", "1", "1", "1"]}}, "num_args": {"i": "1"}, "fused_ops": {"list": {"s": ["Qmlhc0FkZA=="]}}, "TArgs": {"list": {"type": ["DT_FLOAT"]}}, "padding": {"s": "U0FNRQ=="}, "use_cudnn_on_gpu": {"b": true}, "leakyrelu_alpha": {"f": 0.2}, "epsilon": {"f": 0.0}, "T": {"type": "DT_FLOAT"}, "explicit_paddings": {"list": {}}, "dilations": {"list": {"i": ["1", "1", "1", "1"]}}}}, {"name": "StatefulPartitionedCall/model/MobilenetV3small/tf.__operators__.add_13/AddV2", "op": "AddV2", "input": ["StatefulPartitionedCall/model/MobilenetV3small/expanded_conv_6/squeeze_excite/Conv_1/BiasAdd", "StatefulPartitionedCall/model/MobilenetV3small/tf.__operators__.add_13/y"], "attr": {"T": {"type": "DT_FLOAT"}}}, {"name": "StatefulPartitionedCall/model/MobilenetV3small/re_lu_18/Relu6", "op": "Relu6", "input": ["StatefulPartitionedCall/model/MobilenetV3small/tf.__operators__.add_13/AddV2"], "attr": {"T": {"type": "DT_FLOAT"}}}, {"name": "StatefulPartitionedCall/model/MobilenetV3small/tf.math.multiply_13/Mul", "op": "Mul", "input": ["StatefulPartitionedCall/model/MobilenetV3small/tf.math.multiply_13/Mul/y", "StatefulPartitionedCall/model/MobilenetV3small/re_lu_18/Relu6"], "attr": {"_grappler_ArithmeticOptimizer_MinimizeBroadcasts": {"b": true}, "T": {"type": "DT_FLOAT"}}}, {"name": "StatefulPartitionedCall/model/MobilenetV3small/expanded_conv_6/squeeze_excite/Mul/mul", "op": "Mul", "input": ["StatefulPartitionedCall/model/MobilenetV3small/tf.math.multiply_13/Mul", "StatefulPartitionedCall/model/MobilenetV3small/multiply_8/mul"], "attr": {"_grappler_ArithmeticOptimizer_MinimizeBroadcasts": {"b": true}, "T": {"type": "DT_FLOAT"}}}, {"name": "StatefulPartitionedCall/model/MobilenetV3small/expanded_conv_6/project/BatchNorm/FusedBatchNormV3", "op": "_FusedConv2D", "input": ["StatefulPartitionedCall/model/MobilenetV3small/expanded_conv_6/squeeze_excite/Mul/mul", "StatefulPartitionedCall/model/MobilenetV3small/expanded_conv_6/project/Conv2D_weights", "StatefulPartitionedCall/model/MobilenetV3small/expanded_conv_6/project/Conv2D_bn_offset"], "device": "/device:CPU:0", "attr": {"num_host_args": {"i": "0"}, "data_format": {"s": "TkhXQw=="}, "filter_format": {"s": "SFdJTw=="}, "strides": {"list": {"i": ["1", "1", "1", "1"]}}, "num_args": {"i": "1"}, "fused_ops": {"list": {"s": ["Qmlhc0FkZA=="]}}, "TArgs": {"list": {"type": ["DT_FLOAT"]}}, "padding": {"s": "U0FNRQ=="}, "use_cudnn_on_gpu": {"b": true}, "leakyrelu_alpha": {"f": 0.2}, "epsilon": {"f": 0.0}, "T": {"type": "DT_FLOAT"}, "explicit_paddings": {"list": {}}, "dilations": {"list": {"i": ["1", "1", "1", "1"]}}}}, {"name": "StatefulPartitionedCall/model/MobilenetV3small/expanded_conv_7/expand/BatchNorm/FusedBatchNormV3", "op": "_FusedConv2D", "input": ["StatefulPartitionedCall/model/MobilenetV3small/expanded_conv_6/project/BatchNorm/FusedBatchNormV3", "StatefulPartitionedCall/model/MobilenetV3small/expanded_conv_7/expand/Conv2D_weights", "StatefulPartitionedCall/model/MobilenetV3small/expanded_conv_7/expand/Conv2D_bn_offset"], "device": "/device:CPU:0", "attr": {"num_host_args": {"i": "0"}, "data_format": {"s": "TkhXQw=="}, "filter_format": {"s": "SFdJTw=="}, "strides": {"list": {"i": ["1", "1", "1", "1"]}}, "num_args": {"i": "1"}, "fused_ops": {"list": {"s": ["Qmlhc0FkZA=="]}}, "TArgs": {"list": {"type": ["DT_FLOAT"]}}, "padding": {"s": "U0FNRQ=="}, "use_cudnn_on_gpu": {"b": true}, "leakyrelu_alpha": {"f": 0.2}, "epsilon": {"f": 0.0}, "T": {"type": "DT_FLOAT"}, "explicit_paddings": {"list": {}}, "dilations": {"list": {"i": ["1", "1", "1", "1"]}}}}, {"name": "StatefulPartitionedCall/model/MobilenetV3small/tf.math.multiply_14/Mul", "op": "Mul", "input": ["StatefulPartitionedCall/model/MobilenetV3small/tf.math.multiply_14/Mul/y", "StatefulPartitionedCall/model/MobilenetV3small/expanded_conv_7/expand/BatchNorm/FusedBatchNormV3"], "attr": {"_grappler_ArithmeticOptimizer_MinimizeBroadcasts": {"b": true}, "T": {"type": "DT_FLOAT"}}}, {"name": "StatefulPartitionedCall/model/MobilenetV3small/tf.__operators__.add_14/AddV2", "op": "AddV2", "input": ["StatefulPartitionedCall/model/MobilenetV3small/expanded_conv_7/expand/BatchNorm/FusedBatchNormV3", "StatefulPartitionedCall/model/MobilenetV3small/tf.__operators__.add_14/y"], "attr": {"T": {"type": "DT_FLOAT"}}}, {"name": "StatefulPartitionedCall/model/MobilenetV3small/re_lu_19/Relu6", "op": "Relu6", "input": ["StatefulPartitionedCall/model/MobilenetV3small/tf.__operators__.add_14/AddV2"], "attr": {"T": {"type": "DT_FLOAT"}}}, {"name": "StatefulPartitionedCall/model/MobilenetV3small/multiply_9/mul", "op": "Mul", "input": ["StatefulPartitionedCall/model/MobilenetV3small/tf.math.multiply_14/Mul", "StatefulPartitionedCall/model/MobilenetV3small/re_lu_19/Relu6"], "attr": {"_grappler_ArithmeticOptimizer_MinimizeBroadcasts": {"b": true}, "T": {"type": "DT_FLOAT"}}}, {"name": "StatefulPartitionedCall/model/MobilenetV3small/expanded_conv_7/depthwise/depthwise", "op": "FusedDepthwiseConv2dNative", "input": ["StatefulPartitionedCall/model/MobilenetV3small/multiply_9/mul", "StatefulPartitionedCall/model/MobilenetV3small/expanded_conv_7/depthwise/depthwise_weights", "StatefulPartitionedCall/model/MobilenetV3small/expanded_conv_7/depthwise/depthwise_bn_offset"], "attr": {"padding": {"s": "U0FNRQ=="}, "data_format": {"s": "TkhXQw=="}, "strides": {"list": {"i": ["1", "1", "1", "1"]}}, "num_args": {"i": "1"}, "fused_ops": {"list": {"s": ["Qmlhc0FkZA=="]}}, "T": {"type": "DT_FLOAT"}, "explicit_paddings": {"list": {}}, "dilations": {"list": {"i": ["1", "1", "1", "1"]}}}}, {"name": "StatefulPartitionedCall/model/MobilenetV3small/tf.math.multiply_15/Mul", "op": "Mul", "input": ["StatefulPartitionedCall/model/MobilenetV3small/tf.math.multiply_15/Mul/y", "StatefulPartitionedCall/model/MobilenetV3small/expanded_conv_7/depthwise/depthwise"], "attr": {"_grappler_ArithmeticOptimizer_MinimizeBroadcasts": {"b": true}, "T": {"type": "DT_FLOAT"}}}, {"name": "StatefulPartitionedCall/model/MobilenetV3small/tf.__operators__.add_15/AddV2", "op": "AddV2", "input": ["StatefulPartitionedCall/model/MobilenetV3small/expanded_conv_7/depthwise/depthwise", "StatefulPartitionedCall/model/MobilenetV3small/tf.__operators__.add_15/y"], "attr": {"T": {"type": "DT_FLOAT"}}}, {"name": "StatefulPartitionedCall/model/MobilenetV3small/re_lu_20/Relu6", "op": "Relu6", "input": ["StatefulPartitionedCall/model/MobilenetV3small/tf.__operators__.add_15/AddV2"], "attr": {"T": {"type": "DT_FLOAT"}}}, {"name": "StatefulPartitionedCall/model/MobilenetV3small/multiply_10/mul", "op": "Mul", "input": ["StatefulPartitionedCall/model/MobilenetV3small/tf.math.multiply_15/Mul", "StatefulPartitionedCall/model/MobilenetV3small/re_lu_20/Relu6"], "attr": {"_grappler_ArithmeticOptimizer_MinimizeBroadcasts": {"b": true}, "T": {"type": "DT_FLOAT"}}}, {"name": "StatefulPartitionedCall/model/MobilenetV3small/expanded_conv_7/squeeze_excite/AvgPool/Mean", "op": "Mean", "input": ["StatefulPartitionedCall/model/MobilenetV3small/multiply_10/mul", "StatefulPartitionedCall/model/MobilenetV3small/expanded_conv_7/squeeze_excite/AvgPool/Mean/reduction_indices"], "attr": {"T": {"type": "DT_FLOAT"}, "Tidx": {"type": "DT_INT32"}, "keep_dims": {"b": true}}}, {"name": "StatefulPartitionedCall/model/MobilenetV3small/expanded_conv_7/squeeze_excite/Relu/Relu", "op": "_FusedConv2D", "input": ["StatefulPartitionedCall/model/MobilenetV3small/expanded_conv_7/squeeze_excite/AvgPool/Mean", "StatefulPartitionedCall/model/MobilenetV3small/expanded_conv_7/squeeze_excite/Conv/Conv2D/ReadVariableOp", "StatefulPartitionedCall/model/MobilenetV3small/expanded_conv_7/squeeze_excite/Conv/BiasAdd/ReadVariableOp"], "device": "/device:CPU:0", "attr": {"num_host_args": {"i": "0"}, "data_format": {"s": "TkhXQw=="}, "filter_format": {"s": "SFdJTw=="}, "fused_ops": {"list": {"s": ["Qmlhc0FkZA==", "UmVsdQ=="]}}, "num_args": {"i": "1"}, "strides": {"list": {"i": ["1", "1", "1", "1"]}}, "TArgs": {"list": {"type": ["DT_FLOAT"]}}, "padding": {"s": "U0FNRQ=="}, "use_cudnn_on_gpu": {"b": true}, "leakyrelu_alpha": {"f": 0.2}, "epsilon": {"f": 0.0}, "T": {"type": "DT_FLOAT"}, "explicit_paddings": {"list": {}}, "dilations": {"list": {"i": ["1", "1", "1", "1"]}}}}, {"name": "StatefulPartitionedCall/model/MobilenetV3small/expanded_conv_7/squeeze_excite/Conv_1/BiasAdd", "op": "_FusedConv2D", "input": ["StatefulPartitionedCall/model/MobilenetV3small/expanded_conv_7/squeeze_excite/Relu/Relu", "StatefulPartitionedCall/model/MobilenetV3small/expanded_conv_7/squeeze_excite/Conv_1/Conv2D/ReadVariableOp", "StatefulPartitionedCall/model/MobilenetV3small/expanded_conv_7/squeeze_excite/Conv_1/BiasAdd/ReadVariableOp"], "device": "/device:CPU:0", "attr": {"num_host_args": {"i": "0"}, "data_format": {"s": "TkhXQw=="}, "filter_format": {"s": "SFdJTw=="}, "fused_ops": {"list": {"s": ["Qmlhc0FkZA=="]}}, "num_args": {"i": "1"}, "strides": {"list": {"i": ["1", "1", "1", "1"]}}, "TArgs": {"list": {"type": ["DT_FLOAT"]}}, "padding": {"s": "U0FNRQ=="}, "use_cudnn_on_gpu": {"b": true}, "leakyrelu_alpha": {"f": 0.2}, "epsilon": {"f": 0.0}, "T": {"type": "DT_FLOAT"}, "explicit_paddings": {"list": {}}, "dilations": {"list": {"i": ["1", "1", "1", "1"]}}}}, {"name": "StatefulPartitionedCall/model/MobilenetV3small/tf.__operators__.add_16/AddV2", "op": "AddV2", "input": ["StatefulPartitionedCall/model/MobilenetV3small/expanded_conv_7/squeeze_excite/Conv_1/BiasAdd", "StatefulPartitionedCall/model/MobilenetV3small/tf.__operators__.add_16/y"], "attr": {"T": {"type": "DT_FLOAT"}}}, {"name": "StatefulPartitionedCall/model/MobilenetV3small/re_lu_21/Relu6", "op": "Relu6", "input": ["StatefulPartitionedCall/model/MobilenetV3small/tf.__operators__.add_16/AddV2"], "attr": {"T": {"type": "DT_FLOAT"}}}, {"name": "StatefulPartitionedCall/model/MobilenetV3small/tf.math.multiply_16/Mul", "op": "Mul", "input": ["StatefulPartitionedCall/model/MobilenetV3small/tf.math.multiply_16/Mul/y", "StatefulPartitionedCall/model/MobilenetV3small/re_lu_21/Relu6"], "attr": {"_grappler_ArithmeticOptimizer_MinimizeBroadcasts": {"b": true}, "T": {"type": "DT_FLOAT"}}}, {"name": "StatefulPartitionedCall/model/MobilenetV3small/expanded_conv_7/squeeze_excite/Mul/mul", "op": "Mul", "input": ["StatefulPartitionedCall/model/MobilenetV3small/tf.math.multiply_16/Mul", "StatefulPartitionedCall/model/MobilenetV3small/multiply_10/mul"], "attr": {"_grappler_ArithmeticOptimizer_MinimizeBroadcasts": {"b": true}, "T": {"type": "DT_FLOAT"}}}, {"name": "StatefulPartitionedCall/model/MobilenetV3small/expanded_conv_7/project/BatchNorm/FusedBatchNormV3", "op": "_FusedConv2D", "input": ["StatefulPartitionedCall/model/MobilenetV3small/expanded_conv_7/squeeze_excite/Mul/mul", "StatefulPartitionedCall/model/MobilenetV3small/expanded_conv_7/project/Conv2D_weights", "StatefulPartitionedCall/model/MobilenetV3small/expanded_conv_7/project/Conv2D_bn_offset"], "device": "/device:CPU:0", "attr": {"num_host_args": {"i": "0"}, "data_format": {"s": "TkhXQw=="}, "filter_format": {"s": "SFdJTw=="}, "strides": {"list": {"i": ["1", "1", "1", "1"]}}, "num_args": {"i": "1"}, "fused_ops": {"list": {"s": ["Qmlhc0FkZA=="]}}, "TArgs": {"list": {"type": ["DT_FLOAT"]}}, "padding": {"s": "U0FNRQ=="}, "use_cudnn_on_gpu": {"b": true}, "leakyrelu_alpha": {"f": 0.2}, "epsilon": {"f": 0.0}, "T": {"type": "DT_FLOAT"}, "explicit_paddings": {"list": {}}, "dilations": {"list": {"i": ["1", "1", "1", "1"]}}}}, {"name": "StatefulPartitionedCall/model/MobilenetV3small/expanded_conv_7/Add/add", "op": "AddV2", "input": ["StatefulPartitionedCall/model/MobilenetV3small/expanded_conv_6/project/BatchNorm/FusedBatchNormV3", "StatefulPartitionedCall/model/MobilenetV3small/expanded_conv_7/project/BatchNorm/FusedBatchNormV3"], "attr": {"T": {"type": "DT_FLOAT"}}}, {"name": "StatefulPartitionedCall/model/MobilenetV3small/expanded_conv_8/expand/BatchNorm/FusedBatchNormV3", "op": "_FusedConv2D", "input": ["StatefulPartitionedCall/model/MobilenetV3small/expanded_conv_7/Add/add", "StatefulPartitionedCall/model/MobilenetV3small/expanded_conv_8/expand/Conv2D_weights", "StatefulPartitionedCall/model/MobilenetV3small/expanded_conv_8/expand/Conv2D_bn_offset"], "device": "/device:CPU:0", "attr": {"num_host_args": {"i": "0"}, "data_format": {"s": "TkhXQw=="}, "filter_format": {"s": "SFdJTw=="}, "fused_ops": {"list": {"s": ["Qmlhc0FkZA=="]}}, "num_args": {"i": "1"}, "strides": {"list": {"i": ["1", "1", "1", "1"]}}, "TArgs": {"list": {"type": ["DT_FLOAT"]}}, "padding": {"s": "U0FNRQ=="}, "use_cudnn_on_gpu": {"b": true}, "leakyrelu_alpha": {"f": 0.2}, "epsilon": {"f": 0.0}, "T": {"type": "DT_FLOAT"}, "explicit_paddings": {"list": {}}, "dilations": {"list": {"i": ["1", "1", "1", "1"]}}}}, {"name": "StatefulPartitionedCall/model/MobilenetV3small/tf.math.multiply_17/Mul", "op": "Mul", "input": ["StatefulPartitionedCall/model/MobilenetV3small/tf.math.multiply_17/Mul/y", "StatefulPartitionedCall/model/MobilenetV3small/expanded_conv_8/expand/BatchNorm/FusedBatchNormV3"], "attr": {"_grappler_ArithmeticOptimizer_MinimizeBroadcasts": {"b": true}, "T": {"type": "DT_FLOAT"}}}, {"name": "StatefulPartitionedCall/model/MobilenetV3small/tf.__operators__.add_17/AddV2", "op": "AddV2", "input": ["StatefulPartitionedCall/model/MobilenetV3small/expanded_conv_8/expand/BatchNorm/FusedBatchNormV3", "StatefulPartitionedCall/model/MobilenetV3small/tf.__operators__.add_17/y"], "attr": {"T": {"type": "DT_FLOAT"}}}, {"name": "StatefulPartitionedCall/model/MobilenetV3small/re_lu_22/Relu6", "op": "Relu6", "input": ["StatefulPartitionedCall/model/MobilenetV3small/tf.__operators__.add_17/AddV2"], "attr": {"T": {"type": "DT_FLOAT"}}}, {"name": "StatefulPartitionedCall/model/MobilenetV3small/multiply_11/mul", "op": "Mul", "input": ["StatefulPartitionedCall/model/MobilenetV3small/tf.math.multiply_17/Mul", "StatefulPartitionedCall/model/MobilenetV3small/re_lu_22/Relu6"], "attr": {"_grappler_ArithmeticOptimizer_MinimizeBroadcasts": {"b": true}, "T": {"type": "DT_FLOAT"}}}, {"name": "StatefulPartitionedCall/model/MobilenetV3small/expanded_conv_8/depthwise/pad/Pad", "op": "Pad", "input": ["StatefulPartitionedCall/model/MobilenetV3small/multiply_11/mul", "StatefulPartitionedCall/model/MobilenetV3small/expanded_conv_8/depthwise/pad/Pad/paddings"], "attr": {"Tpaddings": {"type": "DT_INT32"}, "T": {"type": "DT_FLOAT"}}}, {"name": "StatefulPartitionedCall/model/MobilenetV3small/expanded_conv_8/depthwise/depthwise", "op": "FusedDepthwiseConv2dNative", "input": ["StatefulPartitionedCall/model/MobilenetV3small/expanded_conv_8/depthwise/pad/Pad", "StatefulPartitionedCall/model/MobilenetV3small/expanded_conv_8/depthwise/depthwise_weights", "StatefulPartitionedCall/model/MobilenetV3small/expanded_conv_8/depthwise/depthwise_bn_offset"], "attr": {"padding": {"s": "VkFMSUQ="}, "data_format": {"s": "TkhXQw=="}, "strides": {"list": {"i": ["1", "2", "2", "1"]}}, "num_args": {"i": "1"}, "fused_ops": {"list": {"s": ["Qmlhc0FkZA=="]}}, "T": {"type": "DT_FLOAT"}, "explicit_paddings": {"list": {}}, "dilations": {"list": {"i": ["1", "1", "1", "1"]}}}}, {"name": "StatefulPartitionedCall/model/MobilenetV3small/tf.math.multiply_18/Mul", "op": "Mul", "input": ["StatefulPartitionedCall/model/MobilenetV3small/tf.math.multiply_18/Mul/y", "StatefulPartitionedCall/model/MobilenetV3small/expanded_conv_8/depthwise/depthwise"], "attr": {"_grappler_ArithmeticOptimizer_MinimizeBroadcasts": {"b": true}, "T": {"type": "DT_FLOAT"}}}, {"name": "StatefulPartitionedCall/model/MobilenetV3small/tf.__operators__.add_18/AddV2", "op": "AddV2", "input": ["StatefulPartitionedCall/model/MobilenetV3small/expanded_conv_8/depthwise/depthwise", "StatefulPartitionedCall/model/MobilenetV3small/tf.__operators__.add_18/y"], "attr": {"T": {"type": "DT_FLOAT"}}}, {"name": "StatefulPartitionedCall/model/MobilenetV3small/re_lu_23/Relu6", "op": "Relu6", "input": ["StatefulPartitionedCall/model/MobilenetV3small/tf.__operators__.add_18/AddV2"], "attr": {"T": {"type": "DT_FLOAT"}}}, {"name": "StatefulPartitionedCall/model/MobilenetV3small/multiply_12/mul", "op": "Mul", "input": ["StatefulPartitionedCall/model/MobilenetV3small/tf.math.multiply_18/Mul", "StatefulPartitionedCall/model/MobilenetV3small/re_lu_23/Relu6"], "attr": {"_grappler_ArithmeticOptimizer_MinimizeBroadcasts": {"b": true}, "T": {"type": "DT_FLOAT"}}}, {"name": "StatefulPartitionedCall/model/MobilenetV3small/expanded_conv_8/squeeze_excite/AvgPool/Mean", "op": "Mean", "input": ["StatefulPartitionedCall/model/MobilenetV3small/multiply_12/mul", "StatefulPartitionedCall/model/MobilenetV3small/expanded_conv_8/squeeze_excite/AvgPool/Mean/reduction_indices"], "attr": {"Tidx": {"type": "DT_INT32"}, "T": {"type": "DT_FLOAT"}, "keep_dims": {"b": true}}}, {"name": "StatefulPartitionedCall/model/MobilenetV3small/expanded_conv_8/squeeze_excite/Relu/Relu", "op": "_FusedConv2D", "input": ["StatefulPartitionedCall/model/MobilenetV3small/expanded_conv_8/squeeze_excite/AvgPool/Mean", "StatefulPartitionedCall/model/MobilenetV3small/expanded_conv_8/squeeze_excite/Conv/Conv2D/ReadVariableOp", "StatefulPartitionedCall/model/MobilenetV3small/expanded_conv_8/squeeze_excite/Conv/BiasAdd/ReadVariableOp"], "device": "/device:CPU:0", "attr": {"num_host_args": {"i": "0"}, "data_format": {"s": "TkhXQw=="}, "filter_format": {"s": "SFdJTw=="}, "fused_ops": {"list": {"s": ["Qmlhc0FkZA==", "UmVsdQ=="]}}, "num_args": {"i": "1"}, "strides": {"list": {"i": ["1", "1", "1", "1"]}}, "TArgs": {"list": {"type": ["DT_FLOAT"]}}, "padding": {"s": "U0FNRQ=="}, "use_cudnn_on_gpu": {"b": true}, "leakyrelu_alpha": {"f": 0.2}, "epsilon": {"f": 0.0}, "T": {"type": "DT_FLOAT"}, "explicit_paddings": {"list": {}}, "dilations": {"list": {"i": ["1", "1", "1", "1"]}}}}, {"name": "StatefulPartitionedCall/model/MobilenetV3small/expanded_conv_8/squeeze_excite/Conv_1/BiasAdd", "op": "_FusedConv2D", "input": ["StatefulPartitionedCall/model/MobilenetV3small/expanded_conv_8/squeeze_excite/Relu/Relu", "StatefulPartitionedCall/model/MobilenetV3small/expanded_conv_8/squeeze_excite/Conv_1/Conv2D/ReadVariableOp", "StatefulPartitionedCall/model/MobilenetV3small/expanded_conv_8/squeeze_excite/Conv_1/BiasAdd/ReadVariableOp"], "device": "/device:CPU:0", "attr": {"num_host_args": {"i": "0"}, "data_format": {"s": "TkhXQw=="}, "filter_format": {"s": "SFdJTw=="}, "fused_ops": {"list": {"s": ["Qmlhc0FkZA=="]}}, "num_args": {"i": "1"}, "strides": {"list": {"i": ["1", "1", "1", "1"]}}, "TArgs": {"list": {"type": ["DT_FLOAT"]}}, "padding": {"s": "U0FNRQ=="}, "use_cudnn_on_gpu": {"b": true}, "leakyrelu_alpha": {"f": 0.2}, "epsilon": {"f": 0.0}, "T": {"type": "DT_FLOAT"}, "explicit_paddings": {"list": {}}, "dilations": {"list": {"i": ["1", "1", "1", "1"]}}}}, {"name": "StatefulPartitionedCall/model/MobilenetV3small/tf.__operators__.add_19/AddV2", "op": "AddV2", "input": ["StatefulPartitionedCall/model/MobilenetV3small/expanded_conv_8/squeeze_excite/Conv_1/BiasAdd", "StatefulPartitionedCall/model/MobilenetV3small/tf.__operators__.add_19/y"], "attr": {"T": {"type": "DT_FLOAT"}}}, {"name": "StatefulPartitionedCall/model/MobilenetV3small/re_lu_24/Relu6", "op": "Relu6", "input": ["StatefulPartitionedCall/model/MobilenetV3small/tf.__operators__.add_19/AddV2"], "attr": {"T": {"type": "DT_FLOAT"}}}, {"name": "StatefulPartitionedCall/model/MobilenetV3small/tf.math.multiply_19/Mul", "op": "Mul", "input": ["StatefulPartitionedCall/model/MobilenetV3small/tf.math.multiply_19/Mul/y", "StatefulPartitionedCall/model/MobilenetV3small/re_lu_24/Relu6"], "attr": {"_grappler_ArithmeticOptimizer_MinimizeBroadcasts": {"b": true}, "T": {"type": "DT_FLOAT"}}}, {"name": "StatefulPartitionedCall/model/MobilenetV3small/expanded_conv_8/squeeze_excite/Mul/mul", "op": "Mul", "input": ["StatefulPartitionedCall/model/MobilenetV3small/tf.math.multiply_19/Mul", "StatefulPartitionedCall/model/MobilenetV3small/multiply_12/mul"], "attr": {"_grappler_ArithmeticOptimizer_MinimizeBroadcasts": {"b": true}, "T": {"type": "DT_FLOAT"}}}, {"name": "StatefulPartitionedCall/model/MobilenetV3small/expanded_conv_8/project/BatchNorm/FusedBatchNormV3", "op": "_FusedConv2D", "input": ["StatefulPartitionedCall/model/MobilenetV3small/expanded_conv_8/squeeze_excite/Mul/mul", "StatefulPartitionedCall/model/MobilenetV3small/expanded_conv_8/project/Conv2D_weights", "StatefulPartitionedCall/model/MobilenetV3small/expanded_conv_8/project/Conv2D_bn_offset"], "device": "/device:CPU:0", "attr": {"num_host_args": {"i": "0"}, "data_format": {"s": "TkhXQw=="}, "filter_format": {"s": "SFdJTw=="}, "strides": {"list": {"i": ["1", "1", "1", "1"]}}, "num_args": {"i": "1"}, "fused_ops": {"list": {"s": ["Qmlhc0FkZA=="]}}, "TArgs": {"list": {"type": ["DT_FLOAT"]}}, "padding": {"s": "U0FNRQ=="}, "use_cudnn_on_gpu": {"b": true}, "leakyrelu_alpha": {"f": 0.2}, "epsilon": {"f": 0.0}, "T": {"type": "DT_FLOAT"}, "explicit_paddings": {"list": {}}, "dilations": {"list": {"i": ["1", "1", "1", "1"]}}}}, {"name": "StatefulPartitionedCall/model/MobilenetV3small/expanded_conv_9/expand/BatchNorm/FusedBatchNormV3", "op": "_FusedConv2D", "input": ["StatefulPartitionedCall/model/MobilenetV3small/expanded_conv_8/project/BatchNorm/FusedBatchNormV3", "StatefulPartitionedCall/model/MobilenetV3small/expanded_conv_9/expand/Conv2D_weights", "StatefulPartitionedCall/model/MobilenetV3small/expanded_conv_9/expand/Conv2D_bn_offset"], "device": "/device:CPU:0", "attr": {"num_host_args": {"i": "0"}, "data_format": {"s": "TkhXQw=="}, "filter_format": {"s": "SFdJTw=="}, "fused_ops": {"list": {"s": ["Qmlhc0FkZA=="]}}, "num_args": {"i": "1"}, "strides": {"list": {"i": ["1", "1", "1", "1"]}}, "TArgs": {"list": {"type": ["DT_FLOAT"]}}, "padding": {"s": "U0FNRQ=="}, "use_cudnn_on_gpu": {"b": true}, "leakyrelu_alpha": {"f": 0.2}, "epsilon": {"f": 0.0}, "T": {"type": "DT_FLOAT"}, "explicit_paddings": {"list": {}}, "dilations": {"list": {"i": ["1", "1", "1", "1"]}}}}, {"name": "StatefulPartitionedCall/model/MobilenetV3small/tf.math.multiply_20/Mul", "op": "Mul", "input": ["StatefulPartitionedCall/model/MobilenetV3small/tf.math.multiply_20/Mul/y", "StatefulPartitionedCall/model/MobilenetV3small/expanded_conv_9/expand/BatchNorm/FusedBatchNormV3"], "attr": {"_grappler_ArithmeticOptimizer_MinimizeBroadcasts": {"b": true}, "T": {"type": "DT_FLOAT"}}}, {"name": "StatefulPartitionedCall/model/MobilenetV3small/tf.__operators__.add_20/AddV2", "op": "AddV2", "input": ["StatefulPartitionedCall/model/MobilenetV3small/expanded_conv_9/expand/BatchNorm/FusedBatchNormV3", "StatefulPartitionedCall/model/MobilenetV3small/tf.__operators__.add_20/y"], "attr": {"T": {"type": "DT_FLOAT"}}}, {"name": "StatefulPartitionedCall/model/MobilenetV3small/re_lu_25/Relu6", "op": "Relu6", "input": ["StatefulPartitionedCall/model/MobilenetV3small/tf.__operators__.add_20/AddV2"], "attr": {"T": {"type": "DT_FLOAT"}}}, {"name": "StatefulPartitionedCall/model/MobilenetV3small/multiply_13/mul", "op": "Mul", "input": ["StatefulPartitionedCall/model/MobilenetV3small/tf.math.multiply_20/Mul", "StatefulPartitionedCall/model/MobilenetV3small/re_lu_25/Relu6"], "attr": {"_grappler_ArithmeticOptimizer_MinimizeBroadcasts": {"b": true}, "T": {"type": "DT_FLOAT"}}}, {"name": "StatefulPartitionedCall/model/MobilenetV3small/expanded_conv_9/depthwise/depthwise", "op": "FusedDepthwiseConv2dNative", "input": ["StatefulPartitionedCall/model/MobilenetV3small/multiply_13/mul", "StatefulPartitionedCall/model/MobilenetV3small/expanded_conv_9/depthwise/depthwise_weights", "StatefulPartitionedCall/model/MobilenetV3small/expanded_conv_9/depthwise/depthwise_bn_offset"], "attr": {"padding": {"s": "U0FNRQ=="}, "data_format": {"s": "TkhXQw=="}, "strides": {"list": {"i": ["1", "1", "1", "1"]}}, "num_args": {"i": "1"}, "fused_ops": {"list": {"s": ["Qmlhc0FkZA=="]}}, "T": {"type": "DT_FLOAT"}, "explicit_paddings": {"list": {}}, "dilations": {"list": {"i": ["1", "1", "1", "1"]}}}}, {"name": "StatefulPartitionedCall/model/MobilenetV3small/tf.math.multiply_21/Mul", "op": "Mul", "input": ["StatefulPartitionedCall/model/MobilenetV3small/tf.math.multiply_21/Mul/y", "StatefulPartitionedCall/model/MobilenetV3small/expanded_conv_9/depthwise/depthwise"], "attr": {"_grappler_ArithmeticOptimizer_MinimizeBroadcasts": {"b": true}, "T": {"type": "DT_FLOAT"}}}, {"name": "StatefulPartitionedCall/model/MobilenetV3small/tf.__operators__.add_21/AddV2", "op": "AddV2", "input": ["StatefulPartitionedCall/model/MobilenetV3small/expanded_conv_9/depthwise/depthwise", "StatefulPartitionedCall/model/MobilenetV3small/tf.__operators__.add_21/y"], "attr": {"T": {"type": "DT_FLOAT"}}}, {"name": "StatefulPartitionedCall/model/MobilenetV3small/re_lu_26/Relu6", "op": "Relu6", "input": ["StatefulPartitionedCall/model/MobilenetV3small/tf.__operators__.add_21/AddV2"], "attr": {"T": {"type": "DT_FLOAT"}}}, {"name": "StatefulPartitionedCall/model/MobilenetV3small/multiply_14/mul", "op": "Mul", "input": ["StatefulPartitionedCall/model/MobilenetV3small/tf.math.multiply_21/Mul", "StatefulPartitionedCall/model/MobilenetV3small/re_lu_26/Relu6"], "attr": {"_grappler_ArithmeticOptimizer_MinimizeBroadcasts": {"b": true}, "T": {"type": "DT_FLOAT"}}}, {"name": "StatefulPartitionedCall/model/MobilenetV3small/expanded_conv_9/squeeze_excite/AvgPool/Mean", "op": "Mean", "input": ["StatefulPartitionedCall/model/MobilenetV3small/multiply_14/mul", "StatefulPartitionedCall/model/MobilenetV3small/expanded_conv_9/squeeze_excite/AvgPool/Mean/reduction_indices"], "attr": {"T": {"type": "DT_FLOAT"}, "Tidx": {"type": "DT_INT32"}, "keep_dims": {"b": true}}}, {"name": "StatefulPartitionedCall/model/MobilenetV3small/expanded_conv_9/squeeze_excite/Relu/Relu", "op": "_FusedConv2D", "input": ["StatefulPartitionedCall/model/MobilenetV3small/expanded_conv_9/squeeze_excite/AvgPool/Mean", "StatefulPartitionedCall/model/MobilenetV3small/expanded_conv_9/squeeze_excite/Conv/Conv2D/ReadVariableOp", "StatefulPartitionedCall/model/MobilenetV3small/expanded_conv_9/squeeze_excite/Conv/BiasAdd/ReadVariableOp"], "device": "/device:CPU:0", "attr": {"num_host_args": {"i": "0"}, "data_format": {"s": "TkhXQw=="}, "filter_format": {"s": "SFdJTw=="}, "strides": {"list": {"i": ["1", "1", "1", "1"]}}, "num_args": {"i": "1"}, "fused_ops": {"list": {"s": ["Qmlhc0FkZA==", "UmVsdQ=="]}}, "TArgs": {"list": {"type": ["DT_FLOAT"]}}, "padding": {"s": "U0FNRQ=="}, "use_cudnn_on_gpu": {"b": true}, "leakyrelu_alpha": {"f": 0.2}, "epsilon": {"f": 0.0}, "T": {"type": "DT_FLOAT"}, "explicit_paddings": {"list": {}}, "dilations": {"list": {"i": ["1", "1", "1", "1"]}}}}, {"name": "StatefulPartitionedCall/model/MobilenetV3small/expanded_conv_9/squeeze_excite/Conv_1/BiasAdd", "op": "_FusedConv2D", "input": ["StatefulPartitionedCall/model/MobilenetV3small/expanded_conv_9/squeeze_excite/Relu/Relu", "StatefulPartitionedCall/model/MobilenetV3small/expanded_conv_9/squeeze_excite/Conv_1/Conv2D/ReadVariableOp", "StatefulPartitionedCall/model/MobilenetV3small/expanded_conv_9/squeeze_excite/Conv_1/BiasAdd/ReadVariableOp"], "device": "/device:CPU:0", "attr": {"num_host_args": {"i": "0"}, "data_format": {"s": "TkhXQw=="}, "filter_format": {"s": "SFdJTw=="}, "strides": {"list": {"i": ["1", "1", "1", "1"]}}, "num_args": {"i": "1"}, "fused_ops": {"list": {"s": ["Qmlhc0FkZA=="]}}, "TArgs": {"list": {"type": ["DT_FLOAT"]}}, "padding": {"s": "U0FNRQ=="}, "use_cudnn_on_gpu": {"b": true}, "leakyrelu_alpha": {"f": 0.2}, "epsilon": {"f": 0.0}, "T": {"type": "DT_FLOAT"}, "explicit_paddings": {"list": {}}, "dilations": {"list": {"i": ["1", "1", "1", "1"]}}}}, {"name": "StatefulPartitionedCall/model/MobilenetV3small/tf.__operators__.add_22/AddV2", "op": "AddV2", "input": ["StatefulPartitionedCall/model/MobilenetV3small/expanded_conv_9/squeeze_excite/Conv_1/BiasAdd", "StatefulPartitionedCall/model/MobilenetV3small/tf.__operators__.add_22/y"], "attr": {"T": {"type": "DT_FLOAT"}}}, {"name": "StatefulPartitionedCall/model/MobilenetV3small/re_lu_27/Relu6", "op": "Relu6", "input": ["StatefulPartitionedCall/model/MobilenetV3small/tf.__operators__.add_22/AddV2"], "attr": {"T": {"type": "DT_FLOAT"}}}, {"name": "StatefulPartitionedCall/model/MobilenetV3small/tf.math.multiply_22/Mul", "op": "Mul", "input": ["StatefulPartitionedCall/model/MobilenetV3small/tf.math.multiply_22/Mul/y", "StatefulPartitionedCall/model/MobilenetV3small/re_lu_27/Relu6"], "attr": {"_grappler_ArithmeticOptimizer_MinimizeBroadcasts": {"b": true}, "T": {"type": "DT_FLOAT"}}}, {"name": "StatefulPartitionedCall/model/MobilenetV3small/expanded_conv_9/squeeze_excite/Mul/mul", "op": "Mul", "input": ["StatefulPartitionedCall/model/MobilenetV3small/tf.math.multiply_22/Mul", "StatefulPartitionedCall/model/MobilenetV3small/multiply_14/mul"], "attr": {"_grappler_ArithmeticOptimizer_MinimizeBroadcasts": {"b": true}, "T": {"type": "DT_FLOAT"}}}, {"name": "StatefulPartitionedCall/model/MobilenetV3small/expanded_conv_9/project/BatchNorm/FusedBatchNormV3", "op": "_FusedConv2D", "input": ["StatefulPartitionedCall/model/MobilenetV3small/expanded_conv_9/squeeze_excite/Mul/mul", "StatefulPartitionedCall/model/MobilenetV3small/expanded_conv_9/project/Conv2D_weights", "StatefulPartitionedCall/model/MobilenetV3small/expanded_conv_9/project/Conv2D_bn_offset"], "device": "/device:CPU:0", "attr": {"num_host_args": {"i": "0"}, "data_format": {"s": "TkhXQw=="}, "filter_format": {"s": "SFdJTw=="}, "fused_ops": {"list": {"s": ["Qmlhc0FkZA=="]}}, "num_args": {"i": "1"}, "strides": {"list": {"i": ["1", "1", "1", "1"]}}, "TArgs": {"list": {"type": ["DT_FLOAT"]}}, "padding": {"s": "U0FNRQ=="}, "use_cudnn_on_gpu": {"b": true}, "leakyrelu_alpha": {"f": 0.2}, "epsilon": {"f": 0.0}, "T": {"type": "DT_FLOAT"}, "explicit_paddings": {"list": {}}, "dilations": {"list": {"i": ["1", "1", "1", "1"]}}}}, {"name": "StatefulPartitionedCall/model/MobilenetV3small/expanded_conv_9/Add/add", "op": "AddV2", "input": ["StatefulPartitionedCall/model/MobilenetV3small/expanded_conv_8/project/BatchNorm/FusedBatchNormV3", "StatefulPartitionedCall/model/MobilenetV3small/expanded_conv_9/project/BatchNorm/FusedBatchNormV3"], "attr": {"T": {"type": "DT_FLOAT"}}}, {"name": "StatefulPartitionedCall/model/MobilenetV3small/expanded_conv_10/expand/BatchNorm/FusedBatchNormV3", "op": "_FusedConv2D", "input": ["StatefulPartitionedCall/model/MobilenetV3small/expanded_conv_9/Add/add", "StatefulPartitionedCall/model/MobilenetV3small/expanded_conv_10/expand/Conv2D_weights", "StatefulPartitionedCall/model/MobilenetV3small/expanded_conv_10/expand/Conv2D_bn_offset"], "device": "/device:CPU:0", "attr": {"num_host_args": {"i": "0"}, "data_format": {"s": "TkhXQw=="}, "filter_format": {"s": "SFdJTw=="}, "fused_ops": {"list": {"s": ["Qmlhc0FkZA=="]}}, "num_args": {"i": "1"}, "strides": {"list": {"i": ["1", "1", "1", "1"]}}, "TArgs": {"list": {"type": ["DT_FLOAT"]}}, "padding": {"s": "U0FNRQ=="}, "use_cudnn_on_gpu": {"b": true}, "leakyrelu_alpha": {"f": 0.2}, "epsilon": {"f": 0.0}, "T": {"type": "DT_FLOAT"}, "explicit_paddings": {"list": {}}, "dilations": {"list": {"i": ["1", "1", "1", "1"]}}}}, {"name": "StatefulPartitionedCall/model/MobilenetV3small/tf.math.multiply_23/Mul", "op": "Mul", "input": ["StatefulPartitionedCall/model/MobilenetV3small/tf.math.multiply_23/Mul/y", "StatefulPartitionedCall/model/MobilenetV3small/expanded_conv_10/expand/BatchNorm/FusedBatchNormV3"], "attr": {"_grappler_ArithmeticOptimizer_MinimizeBroadcasts": {"b": true}, "T": {"type": "DT_FLOAT"}}}, {"name": "StatefulPartitionedCall/model/MobilenetV3small/tf.__operators__.add_23/AddV2", "op": "AddV2", "input": ["StatefulPartitionedCall/model/MobilenetV3small/expanded_conv_10/expand/BatchNorm/FusedBatchNormV3", "StatefulPartitionedCall/model/MobilenetV3small/tf.__operators__.add_23/y"], "attr": {"T": {"type": "DT_FLOAT"}}}, {"name": "StatefulPartitionedCall/model/MobilenetV3small/re_lu_28/Relu6", "op": "Relu6", "input": ["StatefulPartitionedCall/model/MobilenetV3small/tf.__operators__.add_23/AddV2"], "attr": {"T": {"type": "DT_FLOAT"}}}, {"name": "StatefulPartitionedCall/model/MobilenetV3small/multiply_15/mul", "op": "Mul", "input": ["StatefulPartitionedCall/model/MobilenetV3small/tf.math.multiply_23/Mul", "StatefulPartitionedCall/model/MobilenetV3small/re_lu_28/Relu6"], "attr": {"_grappler_ArithmeticOptimizer_MinimizeBroadcasts": {"b": true}, "T": {"type": "DT_FLOAT"}}}, {"name": "StatefulPartitionedCall/model/MobilenetV3small/expanded_conv_10/depthwise/depthwise", "op": "FusedDepthwiseConv2dNative", "input": ["StatefulPartitionedCall/model/MobilenetV3small/multiply_15/mul", "StatefulPartitionedCall/model/MobilenetV3small/expanded_conv_10/depthwise/depthwise_weights", "StatefulPartitionedCall/model/MobilenetV3small/expanded_conv_10/depthwise/depthwise_bn_offset"], "attr": {"padding": {"s": "U0FNRQ=="}, "data_format": {"s": "TkhXQw=="}, "strides": {"list": {"i": ["1", "1", "1", "1"]}}, "num_args": {"i": "1"}, "fused_ops": {"list": {"s": ["Qmlhc0FkZA=="]}}, "T": {"type": "DT_FLOAT"}, "explicit_paddings": {"list": {}}, "dilations": {"list": {"i": ["1", "1", "1", "1"]}}}}, {"name": "StatefulPartitionedCall/model/MobilenetV3small/tf.math.multiply_24/Mul", "op": "Mul", "input": ["StatefulPartitionedCall/model/MobilenetV3small/tf.math.multiply_24/Mul/y", "StatefulPartitionedCall/model/MobilenetV3small/expanded_conv_10/depthwise/depthwise"], "attr": {"_grappler_ArithmeticOptimizer_MinimizeBroadcasts": {"b": true}, "T": {"type": "DT_FLOAT"}}}, {"name": "StatefulPartitionedCall/model/MobilenetV3small/tf.__operators__.add_24/AddV2", "op": "AddV2", "input": ["StatefulPartitionedCall/model/MobilenetV3small/expanded_conv_10/depthwise/depthwise", "StatefulPartitionedCall/model/MobilenetV3small/tf.__operators__.add_24/y"], "attr": {"T": {"type": "DT_FLOAT"}}}, {"name": "StatefulPartitionedCall/model/MobilenetV3small/re_lu_29/Relu6", "op": "Relu6", "input": ["StatefulPartitionedCall/model/MobilenetV3small/tf.__operators__.add_24/AddV2"], "attr": {"T": {"type": "DT_FLOAT"}}}, {"name": "StatefulPartitionedCall/model/MobilenetV3small/multiply_16/mul", "op": "Mul", "input": ["StatefulPartitionedCall/model/MobilenetV3small/tf.math.multiply_24/Mul", "StatefulPartitionedCall/model/MobilenetV3small/re_lu_29/Relu6"], "attr": {"_grappler_ArithmeticOptimizer_MinimizeBroadcasts": {"b": true}, "T": {"type": "DT_FLOAT"}}}, {"name": "StatefulPartitionedCall/model/MobilenetV3small/expanded_conv_10/squeeze_excite/AvgPool/Mean", "op": "Mean", "input": ["StatefulPartitionedCall/model/MobilenetV3small/multiply_16/mul", "StatefulPartitionedCall/model/MobilenetV3small/expanded_conv_10/squeeze_excite/AvgPool/Mean/reduction_indices"], "attr": {"T": {"type": "DT_FLOAT"}, "Tidx": {"type": "DT_INT32"}, "keep_dims": {"b": true}}}, {"name": "StatefulPartitionedCall/model/MobilenetV3small/expanded_conv_10/squeeze_excite/Relu/Relu", "op": "_FusedConv2D", "input": ["StatefulPartitionedCall/model/MobilenetV3small/expanded_conv_10/squeeze_excite/AvgPool/Mean", "StatefulPartitionedCall/model/MobilenetV3small/expanded_conv_10/squeeze_excite/Conv/Conv2D/ReadVariableOp", "StatefulPartitionedCall/model/MobilenetV3small/expanded_conv_10/squeeze_excite/Conv/BiasAdd/ReadVariableOp"], "device": "/device:CPU:0", "attr": {"num_host_args": {"i": "0"}, "data_format": {"s": "TkhXQw=="}, "filter_format": {"s": "SFdJTw=="}, "fused_ops": {"list": {"s": ["Qmlhc0FkZA==", "UmVsdQ=="]}}, "num_args": {"i": "1"}, "strides": {"list": {"i": ["1", "1", "1", "1"]}}, "TArgs": {"list": {"type": ["DT_FLOAT"]}}, "padding": {"s": "U0FNRQ=="}, "use_cudnn_on_gpu": {"b": true}, "leakyrelu_alpha": {"f": 0.2}, "epsilon": {"f": 0.0}, "T": {"type": "DT_FLOAT"}, "explicit_paddings": {"list": {}}, "dilations": {"list": {"i": ["1", "1", "1", "1"]}}}}, {"name": "StatefulPartitionedCall/model/MobilenetV3small/expanded_conv_10/squeeze_excite/Conv_1/BiasAdd", "op": "_FusedConv2D", "input": ["StatefulPartitionedCall/model/MobilenetV3small/expanded_conv_10/squeeze_excite/Relu/Relu", "StatefulPartitionedCall/model/MobilenetV3small/expanded_conv_10/squeeze_excite/Conv_1/Conv2D/ReadVariableOp", "StatefulPartitionedCall/model/MobilenetV3small/expanded_conv_10/squeeze_excite/Conv_1/BiasAdd/ReadVariableOp"], "device": "/device:CPU:0", "attr": {"num_host_args": {"i": "0"}, "data_format": {"s": "TkhXQw=="}, "filter_format": {"s": "SFdJTw=="}, "fused_ops": {"list": {"s": ["Qmlhc0FkZA=="]}}, "num_args": {"i": "1"}, "strides": {"list": {"i": ["1", "1", "1", "1"]}}, "TArgs": {"list": {"type": ["DT_FLOAT"]}}, "padding": {"s": "U0FNRQ=="}, "use_cudnn_on_gpu": {"b": true}, "leakyrelu_alpha": {"f": 0.2}, "epsilon": {"f": 0.0}, "T": {"type": "DT_FLOAT"}, "explicit_paddings": {"list": {}}, "dilations": {"list": {"i": ["1", "1", "1", "1"]}}}}, {"name": "StatefulPartitionedCall/model/MobilenetV3small/tf.__operators__.add_25/AddV2", "op": "AddV2", "input": ["StatefulPartitionedCall/model/MobilenetV3small/expanded_conv_10/squeeze_excite/Conv_1/BiasAdd", "StatefulPartitionedCall/model/MobilenetV3small/tf.__operators__.add_25/y"], "attr": {"T": {"type": "DT_FLOAT"}}}, {"name": "StatefulPartitionedCall/model/MobilenetV3small/re_lu_30/Relu6", "op": "Relu6", "input": ["StatefulPartitionedCall/model/MobilenetV3small/tf.__operators__.add_25/AddV2"], "attr": {"T": {"type": "DT_FLOAT"}}}, {"name": "StatefulPartitionedCall/model/MobilenetV3small/tf.math.multiply_25/Mul", "op": "Mul", "input": ["StatefulPartitionedCall/model/MobilenetV3small/tf.math.multiply_25/Mul/y", "StatefulPartitionedCall/model/MobilenetV3small/re_lu_30/Relu6"], "attr": {"_grappler_ArithmeticOptimizer_MinimizeBroadcasts": {"b": true}, "T": {"type": "DT_FLOAT"}}}, {"name": "StatefulPartitionedCall/model/MobilenetV3small/expanded_conv_10/squeeze_excite/Mul/mul", "op": "Mul", "input": ["StatefulPartitionedCall/model/MobilenetV3small/tf.math.multiply_25/Mul", "StatefulPartitionedCall/model/MobilenetV3small/multiply_16/mul"], "attr": {"_grappler_ArithmeticOptimizer_MinimizeBroadcasts": {"b": true}, "T": {"type": "DT_FLOAT"}}}, {"name": "StatefulPartitionedCall/model/MobilenetV3small/expanded_conv_10/project/BatchNorm/FusedBatchNormV3", "op": "_FusedConv2D", "input": ["StatefulPartitionedCall/model/MobilenetV3small/expanded_conv_10/squeeze_excite/Mul/mul", "StatefulPartitionedCall/model/MobilenetV3small/expanded_conv_10/project/Conv2D_weights", "StatefulPartitionedCall/model/MobilenetV3small/expanded_conv_10/project/Conv2D_bn_offset"], "device": "/device:CPU:0", "attr": {"num_host_args": {"i": "0"}, "data_format": {"s": "TkhXQw=="}, "filter_format": {"s": "SFdJTw=="}, "strides": {"list": {"i": ["1", "1", "1", "1"]}}, "num_args": {"i": "1"}, "fused_ops": {"list": {"s": ["Qmlhc0FkZA=="]}}, "TArgs": {"list": {"type": ["DT_FLOAT"]}}, "padding": {"s": "U0FNRQ=="}, "use_cudnn_on_gpu": {"b": true}, "leakyrelu_alpha": {"f": 0.2}, "epsilon": {"f": 0.0}, "T": {"type": "DT_FLOAT"}, "explicit_paddings": {"list": {}}, "dilations": {"list": {"i": ["1", "1", "1", "1"]}}}}, {"name": "StatefulPartitionedCall/model/MobilenetV3small/expanded_conv_10/Add/add", "op": "AddV2", "input": ["StatefulPartitionedCall/model/MobilenetV3small/expanded_conv_9/Add/add", "StatefulPartitionedCall/model/MobilenetV3small/expanded_conv_10/project/BatchNorm/FusedBatchNormV3"], "attr": {"T": {"type": "DT_FLOAT"}}}, {"name": "StatefulPartitionedCall/model/MobilenetV3small/Conv_1/BatchNorm/FusedBatchNormV3", "op": "_FusedConv2D", "input": ["StatefulPartitionedCall/model/MobilenetV3small/expanded_conv_10/Add/add", "StatefulPartitionedCall/model/MobilenetV3small/Conv_1/Conv2D_weights", "StatefulPartitionedCall/model/MobilenetV3small/Conv_1/Conv2D_bn_offset"], "device": "/device:CPU:0", "attr": {"num_host_args": {"i": "0"}, "data_format": {"s": "TkhXQw=="}, "filter_format": {"s": "SFdJTw=="}, "strides": {"list": {"i": ["1", "1", "1", "1"]}}, "num_args": {"i": "1"}, "fused_ops": {"list": {"s": ["Qmlhc0FkZA=="]}}, "TArgs": {"list": {"type": ["DT_FLOAT"]}}, "padding": {"s": "U0FNRQ=="}, "use_cudnn_on_gpu": {"b": true}, "leakyrelu_alpha": {"f": 0.2}, "epsilon": {"f": 0.0}, "T": {"type": "DT_FLOAT"}, "explicit_paddings": {"list": {}}, "dilations": {"list": {"i": ["1", "1", "1", "1"]}}}}, {"name": "StatefulPartitionedCall/model/MobilenetV3small/tf.__operators__.add_26/AddV2", "op": "AddV2", "input": ["StatefulPartitionedCall/model/MobilenetV3small/Conv_1/BatchNorm/FusedBatchNormV3", "StatefulPartitionedCall/model/MobilenetV3small/tf.__operators__.add_26/y"], "attr": {"T": {"type": "DT_FLOAT"}}}, {"name": "StatefulPartitionedCall/model/MobilenetV3small/tf.math.multiply_26/Mul", "op": "Mul", "input": ["StatefulPartitionedCall/model/MobilenetV3small/tf.math.multiply_26/Mul/y", "StatefulPartitionedCall/model/MobilenetV3small/Conv_1/BatchNorm/FusedBatchNormV3"], "attr": {"_grappler_ArithmeticOptimizer_MinimizeBroadcasts": {"b": true}, "T": {"type": "DT_FLOAT"}}}, {"name": "StatefulPartitionedCall/model/MobilenetV3small/re_lu_31/Relu6", "op": "Relu6", "input": ["StatefulPartitionedCall/model/MobilenetV3small/tf.__operators__.add_26/AddV2"], "attr": {"T": {"type": "DT_FLOAT"}}}, {"name": "StatefulPartitionedCall/model/MobilenetV3small/multiply_17/mul", "op": "Mul", "input": ["StatefulPartitionedCall/model/MobilenetV3small/tf.math.multiply_26/Mul", "StatefulPartitionedCall/model/MobilenetV3small/re_lu_31/Relu6"], "attr": {"_grappler_ArithmeticOptimizer_MinimizeBroadcasts": {"b": true}, "T": {"type": "DT_FLOAT"}}}, {"name": "StatefulPartitionedCall/model/global_average_pooling2d/Mean", "op": "Mean", "input": ["StatefulPartitionedCall/model/MobilenetV3small/multiply_17/mul", "StatefulPartitionedCall/model/global_average_pooling2d/Mean/reduction_indices"], "attr": {"T": {"type": "DT_FLOAT"}, "Tidx": {"type": "DT_INT32"}, "keep_dims": {"b": false}}}, {"name": "StatefulPartitionedCall/model/dense/BiasAdd", "op": "_FusedMatMul", "input": ["StatefulPartitionedCall/model/global_average_pooling2d/Mean", "StatefulPartitionedCall/model/dense/MatMul/ReadVariableOp", "StatefulPartitionedCall/model/dense/BiasAdd/ReadVariableOp"], "device": "/device:CPU:0", "attr": {"transpose_a": {"b": false}, "transpose_b": {"b": false}, "fused_ops": {"list": {"s": ["Qmlhc0FkZA=="]}}, "num_args": {"i": "1"}, "leakyrelu_alpha": {"f": 0.2}, "epsilon": {"f": 0.0}, "T": {"type": "DT_FLOAT"}}}, {"name": "StatefulPartitionedCall/model/dense/Sigmoid", "op": "Sigmoid", "input": ["StatefulPartitionedCall/model/dense/BiasAdd"], "attr": {"T": {"type": "DT_FLOAT"}}}, {"name": "Identity", "op": "Identity", "input": ["StatefulPartitionedCall/model/dense/Sigmoid"], "attr": {"T": {"type": "DT_FLOAT"}}}], "library": {}, "versions": {"producer": 2129}}, "weightsManifest": [{"paths": ["group1-shard1of8.bin", "group1-shard2of8.bin", "group1-shard3of8.bin", "group1-shard4of8.bin", "group1-shard5of8.bin", "group1-shard6of8.bin", "group1-shard7of8.bin", "group1-shard8of8.bin"], "weights": [{"name": "StatefulPartitionedCall/model/MobilenetV3small/tf.math.multiply_26/Mul/y", "shape": [], "dtype": "float32", "quantization": {"dtype": "uint16", "min": 0.1666666716337204, "scale": 1.0, "original_dtype": "float32"}}, {"name": "StatefulPartitionedCall/model/MobilenetV3small/tf.math.multiply_25/Mul/y", "shape": [], "dtype": "float32", "quantization": {"dtype": "uint16", "min": 0.1666666716337204, "scale": 1.0, "original_dtype": "float32"}}, {"name": "StatefulPartitionedCall/model/MobilenetV3small/expanded_conv_10/squeeze_excite/AvgPool/Mean/reduction_indices", "shape": [2], "dtype": "int32"}, {"name": "StatefulPartitionedCall/model/MobilenetV3small/expanded_conv_10/squeeze_excite/Conv/Conv2D/ReadVariableOp", "shape": [1, 1, 576, 144], "dtype": "float32", "quantization": {"dtype": "uint16", "min": -0.6544050181022069, "scale": 2.6353294865585006e-05, "original_dtype": "float32"}}, {"name": "StatefulPartitionedCall/model/MobilenetV3small/expanded_conv_10/squeeze_excite/Conv/BiasAdd/ReadVariableOp", "shape": [144], "dtype": "float32", "quantization": {"dtype": "uint16", "min": -2.2070867281315882, "scale": 7.901359424807891e-05, "original_dtype": "float32"}}, {"name": "StatefulPartitionedCall/model/MobilenetV3small/expanded_conv_10/squeeze_excite/Conv_1/Conv2D/ReadVariableOp", "shape": [1, 1, 144, 576], "dtype": "float32", "quantization": {"dtype": "uint16", "min": -0.7946587894277004, "scale": 3.3926430834124595e-05, "original_dtype": "float32"}}, {"name": "StatefulPartitionedCall/model/MobilenetV3small/expanded_conv_10/squeeze_excite/Conv_1/BiasAdd/ReadVariableOp", "shape": [576], "dtype": "float32", "quantization": {"dtype": "uint16", "min": -3.5428921050753264, "scale": 0.0001278606988731216, "original_dtype": "float32"}}, {"name": "StatefulPartitionedCall/model/MobilenetV3small/tf.__operators__.add_25/y", "shape": [], "dtype": "float32", "quantization": {"dtype": "uint16", "min": 3.0, "scale": 1.0, "original_dtype": "float32"}}, {"name": "StatefulPartitionedCall/model/MobilenetV3small/tf.math.multiply_24/Mul/y", "shape": [], "dtype": "float32", "quantization": {"dtype": "uint16", "min": 0.1666666716337204, "scale": 1.0, "original_dtype": "float32"}}, {"name": "StatefulPartitionedCall/model/MobilenetV3small/tf.math.multiply_23/Mul/y", "shape": [], "dtype": "float32", "quantization": {"dtype": "uint16", "min": 0.1666666716337204, "scale": 1.0, "original_dtype": "float32"}}, {"name": "StatefulPartitionedCall/model/MobilenetV3small/tf.math.multiply_22/Mul/y", "shape": [], "dtype": "float32", "quantization": {"dtype": "uint16", "min": 0.1666666716337204, "scale": 1.0, "original_dtype": "float32"}}, {"name": "StatefulPartitionedCall/model/MobilenetV3small/expanded_conv_9/squeeze_excite/AvgPool/Mean/reduction_indices", "shape": [2], "dtype": "int32"}, {"name": "StatefulPartitionedCall/model/MobilenetV3small/expanded_conv_9/squeeze_excite/Conv/Conv2D/ReadVariableOp", "shape": [1, 1, 576, 144], "dtype": "float32", "quantization": {"dtype": "uint16", "min": -0.7574142875374523, "scale": 2.598512033544162e-05, "original_dtype": "float32"}}, {"name": "StatefulPartitionedCall/model/MobilenetV3small/expanded_conv_9/squeeze_excite/Conv/BiasAdd/ReadVariableOp", "shape": [144], "dtype": "float32", "quantization": {"dtype": "uint16", "min": -1.3299311510328935, "scale": 3.897805249217156e-05, "original_dtype": "float32"}}, {"name": "StatefulPartitionedCall/model/MobilenetV3small/expanded_conv_9/squeeze_excite/Conv_1/Conv2D/ReadVariableOp", "shape": [1, 1, 144, 576], "dtype": "float32", "quantization": {"dtype": "uint16", "min": -0.8657075017342772, "scale": 3.722512477357573e-05, "original_dtype": "float32"}}, {"name": "StatefulPartitionedCall/model/MobilenetV3small/expanded_conv_9/squeeze_excite/Conv_1/BiasAdd/ReadVariableOp", "shape": [576], "dtype": "float32", "quantization": {"dtype": "uint16", "min": -3.0784178830961197, "scale": 9.126917142803284e-05, "original_dtype": "float32"}}, {"name": "StatefulPartitionedCall/model/MobilenetV3small/tf.__operators__.add_22/y", "shape": [], "dtype": "float32", "quantization": {"dtype": "uint16", "min": 3.0, "scale": 1.0, "original_dtype": "float32"}}, {"name": "StatefulPartitionedCall/model/MobilenetV3small/tf.math.multiply_21/Mul/y", "shape": [], "dtype": "float32", "quantization": {"dtype": "uint16", "min": 0.1666666716337204, "scale": 1.0, "original_dtype": "float32"}}, {"name": "StatefulPartitionedCall/model/MobilenetV3small/tf.math.multiply_20/Mul/y", "shape": [], "dtype": "float32", "quantization": {"dtype": "uint16", "min": 0.1666666716337204, "scale": 1.0, "original_dtype": "float32"}}, {"name": "StatefulPartitionedCall/model/MobilenetV3small/tf.math.multiply_19/Mul/y", "shape": [], "dtype": "float32", "quantization": {"dtype": "uint16", "min": 0.1666666716337204, "scale": 1.0, "original_dtype": "float32"}}, {"name": "StatefulPartitionedCall/model/MobilenetV3small/expanded_conv_8/squeeze_excite/AvgPool/Mean/reduction_indices", "shape": [2], "dtype": "int32"}, {"name": "StatefulPartitionedCall/model/MobilenetV3small/expanded_conv_8/squeeze_excite/Conv/Conv2D/ReadVariableOp", "shape": [1, 1, 288, 72], "dtype": "float32", "quantization": {"dtype": "uint16", "min": -0.9046854662369507, "scale": 3.051421567178058e-05, "original_dtype": "float32"}}, {"name": "StatefulPartitionedCall/model/MobilenetV3small/expanded_conv_8/squeeze_excite/Conv/BiasAdd/ReadVariableOp", "shape": [72], "dtype": "float32", "quantization": {"dtype": "uint16", "min": -3.159744400795095, "scale": 8.498505650336458e-05, "original_dtype": "float32"}}, {"name": "StatefulPartitionedCall/model/MobilenetV3small/expanded_conv_8/squeeze_excite/Conv_1/Conv2D/ReadVariableOp", "shape": [1, 1, 72, 288], "dtype": "float32", "quantization": {"dtype": "uint16", "min": -0.9378390347802085, "scale": 2.3278949407506354e-05, "original_dtype": "float32"}}, {"name": "StatefulPartitionedCall/model/MobilenetV3small/expanded_conv_8/squeeze_excite/Conv_1/BiasAdd/ReadVariableOp", "shape": [288], "dtype": "float32", "quantization": {"dtype": "uint16", "min": -1.2806792210557598, "scale": 7.424657783383152e-05, "original_dtype": "float32"}}, {"name": "StatefulPartitionedCall/model/MobilenetV3small/tf.__operators__.add_19/y", "shape": [], "dtype": "float32", "quantization": {"dtype": "uint16", "min": 3.0, "scale": 1.0, "original_dtype": "float32"}}, {"name": "StatefulPartitionedCall/model/MobilenetV3small/tf.math.multiply_18/Mul/y", "shape": [], "dtype": "float32", "quantization": {"dtype": "uint16", "min": 0.1666666716337204, "scale": 1.0, "original_dtype": "float32"}}, {"name": "StatefulPartitionedCall/model/MobilenetV3small/tf.math.multiply_17/Mul/y", "shape": [], "dtype": "float32", "quantization": {"dtype": "uint16", "min": 0.1666666716337204, "scale": 1.0, "original_dtype": "float32"}}, {"name": "StatefulPartitionedCall/model/MobilenetV3small/tf.math.multiply_16/Mul/y", "shape": [], "dtype": "float32", "quantization": {"dtype": "uint16", "min": 0.1666666716337204, "scale": 1.0, "original_dtype": "float32"}}, {"name": "StatefulPartitionedCall/model/MobilenetV3small/expanded_conv_7/squeeze_excite/AvgPool/Mean/reduction_indices", "shape": [2], "dtype": "int32"}, {"name": "StatefulPartitionedCall/model/MobilenetV3small/expanded_conv_7/squeeze_excite/Conv/Conv2D/ReadVariableOp", "shape": [1, 1, 144, 40], "dtype": "float32", "quantization": {"dtype": "uint16", "min": -0.9395693548394893, "scale": 2.7166961250238235e-05, "original_dtype": "float32"}}, {"name": "StatefulPartitionedCall/model/MobilenetV3small/expanded_conv_7/squeeze_excite/Conv/BiasAdd/ReadVariableOp", "shape": [40], "dtype": "float32", "quantization": {"dtype": "uint16", "min": -0.1882677083840548, "scale": 2.0988596252402987e-05, "original_dtype": "float32"}}, {"name": "StatefulPartitionedCall/model/MobilenetV3small/expanded_conv_7/squeeze_excite/Conv_1/Conv2D/ReadVariableOp", "shape": [1, 1, 40, 144], "dtype": "float32", "quantization": {"dtype": "uint16", "min": -0.6165467060166164, "scale": 1.9556148888781567e-05, "original_dtype": "float32"}}, {"name": "StatefulPartitionedCall/model/MobilenetV3small/expanded_conv_7/squeeze_excite/Conv_1/BiasAdd/ReadVariableOp", "shape": [144], "dtype": "float32", "quantization": {"dtype": "uint16", "min": -3.057516543656199, "scale": 8.892524048675796e-05, "original_dtype": "float32"}}, {"name": "StatefulPartitionedCall/model/MobilenetV3small/tf.__operators__.add_16/y", "shape": [], "dtype": "float32", "quantization": {"dtype": "uint16", "min": 3.0, "scale": 1.0, "original_dtype": "float32"}}, {"name": "StatefulPartitionedCall/model/MobilenetV3small/tf.math.multiply_15/Mul/y", "shape": [], "dtype": "float32", "quantization": {"dtype": "uint16", "min": 0.1666666716337204, "scale": 1.0, "original_dtype": "float32"}}, {"name": "StatefulPartitionedCall/model/MobilenetV3small/tf.math.multiply_14/Mul/y", "shape": [], "dtype": "float32", "quantization": {"dtype": "uint16", "min": 0.1666666716337204, "scale": 1.0, "original_dtype": "float32"}}, {"name": "StatefulPartitionedCall/model/MobilenetV3small/tf.math.multiply_13/Mul/y", "shape": [], "dtype": "float32", "quantization": {"dtype": "uint16", "min": 0.1666666716337204, "scale": 1.0, "original_dtype": "float32"}}, {"name": "StatefulPartitionedCall/model/MobilenetV3small/expanded_conv_6/squeeze_excite/AvgPool/Mean/reduction_indices", "shape": [2], "dtype": "int32"}, {"name": "StatefulPartitionedCall/model/MobilenetV3small/expanded_conv_6/squeeze_excite/Conv/Conv2D/ReadVariableOp", "shape": [1, 1, 120, 32], "dtype": "float32", "quantization": {"dtype": "uint16", "min": -0.00891020906913039, "scale": 1.589519243101611e-07, "original_dtype": "float32"}}, {"name": "StatefulPartitionedCall/model/MobilenetV3small/expanded_conv_6/squeeze_excite/Conv/BiasAdd/ReadVariableOp", "shape": [32], "dtype": "float32", "quantization": {"dtype": "uint16", "min": -0.5464356451865109, "scale": 2.159397926048255e-05, "original_dtype": "float32"}}, {"name": "StatefulPartitionedCall/model/MobilenetV3small/expanded_conv_6/squeeze_excite/Conv_1/Conv2D/ReadVariableOp", "shape": [1, 1, 32, 120], "dtype": "float32", "quantization": {"dtype": "uint16", "min": -0.005973038192250945, "scale": 1.6225350262817333e-07, "original_dtype": "float32"}}, {"name": "StatefulPartitionedCall/model/MobilenetV3small/expanded_conv_6/squeeze_excite/Conv_1/BiasAdd/ReadVariableOp", "shape": [120], "dtype": "float32", "quantization": {"dtype": "uint16", "min": -1.9656266605443846, "scale": 7.635280688876571e-05, "original_dtype": "float32"}}, {"name": "StatefulPartitionedCall/model/MobilenetV3small/tf.__operators__.add_13/y", "shape": [], "dtype": "float32", "quantization": {"dtype": "uint16", "min": 3.0, "scale": 1.0, "original_dtype": "float32"}}, {"name": "StatefulPartitionedCall/model/MobilenetV3small/tf.math.multiply_12/Mul/y", "shape": [], "dtype": "float32", "quantization": {"dtype": "uint16", "min": 0.1666666716337204, "scale": 1.0, "original_dtype": "float32"}}, {"name": "StatefulPartitionedCall/model/MobilenetV3small/tf.math.multiply_11/Mul/y", "shape": [], "dtype": "float32", "quantization": {"dtype": "uint16", "min": 0.1666666716337204, "scale": 1.0, "original_dtype": "float32"}}, {"name": "StatefulPartitionedCall/model/MobilenetV3small/tf.math.multiply_10/Mul/y", "shape": [], "dtype": "float32", "quantization": {"dtype": "uint16", "min": 0.1666666716337204, "scale": 1.0, "original_dtype": "float32"}}, {"name": "StatefulPartitionedCall/model/MobilenetV3small/expanded_conv_5/squeeze_excite/AvgPool/Mean/reduction_indices", "shape": [2], "dtype": "int32"}, {"name": "StatefulPartitionedCall/model/MobilenetV3small/expanded_conv_5/squeeze_excite/Conv/Conv2D/ReadVariableOp", "shape": [1, 1, 240, 64], "dtype": "float32", "quantization": {"dtype": "uint16", "min": -1.445397970893249, "scale": 3.335713394321038e-05, "original_dtype": "float32"}}, {"name": "StatefulPartitionedCall/model/MobilenetV3small/expanded_conv_5/squeeze_excite/Conv/BiasAdd/ReadVariableOp", "shape": [64], "dtype": "float32", "quantization": {"dtype": "uint16", "min": -0.7616312475292508, "scale": 2.611725010387665e-05, "original_dtype": "float32"}}, {"name": "StatefulPartitionedCall/model/MobilenetV3small/expanded_conv_5/squeeze_excite/Conv_1/Conv2D/ReadVariableOp", "shape": [1, 1, 64, 240], "dtype": "float32", "quantization": {"dtype": "uint16", "min": -0.739089871200497, "scale": 2.684280784486442e-05, "original_dtype": "float32"}}, {"name": "StatefulPartitionedCall/model/MobilenetV3small/expanded_conv_5/squeeze_excite/Conv_1/BiasAdd/ReadVariableOp", "shape": [240], "dtype": "float32", "quantization": {"dtype": "uint16", "min": -3.935324040974106, "scale": 0.00010254648845565212, "original_dtype": "float32"}}, {"name": "StatefulPartitionedCall/model/MobilenetV3small/tf.__operators__.add_10/y", "shape": [], "dtype": "float32", "quantization": {"dtype": "uint16", "min": 3.0, "scale": 1.0, "original_dtype": "float32"}}, {"name": "StatefulPartitionedCall/model/MobilenetV3small/tf.math.multiply_9/Mul/y", "shape": [], "dtype": "float32", "quantization": {"dtype": "uint16", "min": 0.1666666716337204, "scale": 1.0, "original_dtype": "float32"}}, {"name": "StatefulPartitionedCall/model/MobilenetV3small/tf.math.multiply_8/Mul/y", "shape": [], "dtype": "float32", "quantization": {"dtype": "uint16", "min": 0.1666666716337204, "scale": 1.0, "original_dtype": "float32"}}, {"name": "StatefulPartitionedCall/model/MobilenetV3small/tf.math.multiply_7/Mul/y", "shape": [], "dtype": "float32", "quantization": {"dtype": "uint16", "min": 0.1666666716337204, "scale": 1.0, "original_dtype": "float32"}}, {"name": "StatefulPartitionedCall/model/MobilenetV3small/expanded_conv_4/squeeze_excite/AvgPool/Mean/reduction_indices", "shape": [2], "dtype": "int32"}, {"name": "StatefulPartitionedCall/model/MobilenetV3small/expanded_conv_4/squeeze_excite/Conv/Conv2D/ReadVariableOp", "shape": [1, 1, 240, 64], "dtype": "float32", "quantization": {"dtype": "uint16", "min": -1.5484753522336678, "scale": 4.0749351374570206e-05, "original_dtype": "float32"}}, {"name": "StatefulPartitionedCall/model/MobilenetV3small/expanded_conv_4/squeeze_excite/Conv/BiasAdd/ReadVariableOp", "shape": [64], "dtype": "float32", "quantization": {"dtype": "uint16", "min": -1.5823815581508784, "scale": 4.5458977797433954e-05, "original_dtype": "float32"}}, {"name": "StatefulPartitionedCall/model/MobilenetV3small/expanded_conv_4/squeeze_excite/Conv_1/Conv2D/ReadVariableOp", "shape": [1, 1, 64, 240], "dtype": "float32", "quantization": {"dtype": "uint16", "min": -0.6938125518527576, "scale": 2.6193466922861583e-05, "original_dtype": "float32"}}, {"name": "StatefulPartitionedCall/model/MobilenetV3small/expanded_conv_4/squeeze_excite/Conv_1/BiasAdd/ReadVariableOp", "shape": [240], "dtype": "float32", "quantization": {"dtype": "uint16", "min": -3.2407021349533442, "scale": 0.00010053364774168898, "original_dtype": "float32"}}, {"name": "StatefulPartitionedCall/model/MobilenetV3small/tf.__operators__.add_7/y", "shape": [], "dtype": "float32", "quantization": {"dtype": "uint16", "min": 3.0, "scale": 1.0, "original_dtype": "float32"}}, {"name": "StatefulPartitionedCall/model/MobilenetV3small/tf.math.multiply_6/Mul/y", "shape": [], "dtype": "float32", "quantization": {"dtype": "uint16", "min": 0.1666666716337204, "scale": 1.0, "original_dtype": "float32"}}, {"name": "StatefulPartitionedCall/model/MobilenetV3small/tf.math.multiply_5/Mul/y", "shape": [], "dtype": "float32", "quantization": {"dtype": "uint16", "min": 0.1666666716337204, "scale": 1.0, "original_dtype": "float32"}}, {"name": "StatefulPartitionedCall/model/MobilenetV3small/tf.math.multiply_4/Mul/y", "shape": [], "dtype": "float32", "quantization": {"dtype": "uint16", "min": 0.1666666716337204, "scale": 1.0, "original_dtype": "float32"}}, {"name": "StatefulPartitionedCall/model/MobilenetV3small/expanded_conv_3/squeeze_excite/AvgPool/Mean/reduction_indices", "shape": [2], "dtype": "int32"}, {"name": "StatefulPartitionedCall/model/MobilenetV3small/expanded_conv_3/squeeze_excite/Conv/Conv2D/ReadVariableOp", "shape": [1, 1, 96, 24], "dtype": "float32", "quantization": {"dtype": "uint16", "min": -0.7194254424521603, "scale": 3.00725428437972e-05, "original_dtype": "float32"}}, {"name": "StatefulPartitionedCall/model/MobilenetV3small/expanded_conv_3/squeeze_excite/Conv/BiasAdd/ReadVariableOp", "shape": [24], "dtype": "float32", "quantization": {"dtype": "uint16", "min": -0.48050366511304526, "scale": 2.8420397770925965e-05, "original_dtype": "float32"}}, {"name": "StatefulPartitionedCall/model/MobilenetV3small/expanded_conv_3/squeeze_excite/Conv_1/Conv2D/ReadVariableOp", "shape": [1, 1, 24, 96], "dtype": "float32", "quantization": {"dtype": "uint16", "min": -0.5249728236253359, "scale": 1.894798323920219e-05, "original_dtype": "float32"}}, {"name": "StatefulPartitionedCall/model/MobilenetV3small/expanded_conv_3/squeeze_excite/Conv_1/BiasAdd/ReadVariableOp", "shape": [96], "dtype": "float32", "quantization": {"dtype": "uint16", "min": -4.982356499828881, "scale": 0.00012214352430263737, "original_dtype": "float32"}}, {"name": "StatefulPartitionedCall/model/MobilenetV3small/tf.__operators__.add_4/y", "shape": [], "dtype": "float32", "quantization": {"dtype": "uint16", "min": 3.0, "scale": 1.0, "original_dtype": "float32"}}, {"name": "StatefulPartitionedCall/model/MobilenetV3small/tf.math.multiply_3/Mul/y", "shape": [], "dtype": "float32", "quantization": {"dtype": "uint16", "min": 0.1666666716337204, "scale": 1.0, "original_dtype": "float32"}}, {"name": "StatefulPartitionedCall/model/MobilenetV3small/tf.math.multiply_2/Mul/y", "shape": [], "dtype": "float32", "quantization": {"dtype": "uint16", "min": 0.1666666716337204, "scale": 1.0, "original_dtype": "float32"}}, {"name": "StatefulPartitionedCall/model/MobilenetV3small/tf.math.multiply_1/Mul/y", "shape": [], "dtype": "float32", "quantization": {"dtype": "uint16", "min": 0.1666666716337204, "scale": 1.0, "original_dtype": "float32"}}, {"name": "StatefulPartitionedCall/model/MobilenetV3small/expanded_conv/squeeze_excite/AvgPool/Mean/reduction_indices", "shape": [2], "dtype": "int32"}, {"name": "StatefulPartitionedCall/model/MobilenetV3small/expanded_conv/squeeze_excite/Conv/Conv2D/ReadVariableOp", "shape": [1, 1, 16, 8], "dtype": "float32", "quantization": {"dtype": "uint16", "min": -0.044838710041607124, "scale": 2.127679132656692e-06, "original_dtype": "float32"}}, {"name": "StatefulPartitionedCall/model/MobilenetV3small/expanded_conv/squeeze_excite/Conv/BiasAdd/ReadVariableOp", "shape": [8], "dtype": "float32", "quantization": {"dtype": "uint16", "min": -2.2445616387626055, "scale": 7.941977350373667e-05, "original_dtype": "float32"}}, {"name": "StatefulPartitionedCall/model/MobilenetV3small/expanded_conv/squeeze_excite/Conv_1/Conv2D/ReadVariableOp", "shape": [1, 1, 8, 16], "dtype": "float32", "quantization": {"dtype": "uint16", "min": -0.0, "scale": 2.315973557041269e-06, "original_dtype": "float32"}}, {"name": "StatefulPartitionedCall/model/MobilenetV3small/expanded_conv/squeeze_excite/Conv_1/BiasAdd/ReadVariableOp", "shape": [16], "dtype": "float32", "quantization": {"dtype": "uint16", "min": -0.7837212928692809, "scale": 4.4958770816273574e-05, "original_dtype": "float32"}}, {"name": "StatefulPartitionedCall/model/MobilenetV3small/tf.__operators__.add_1/y", "shape": [], "dtype": "float32", "quantization": {"dtype": "uint16", "min": 3.0, "scale": 1.0, "original_dtype": "float32"}}, {"name": "StatefulPartitionedCall/model/MobilenetV3small/tf.math.multiply/Mul/y", "shape": [], "dtype": "float32", "quantization": {"dtype": "uint16", "min": 0.1666666716337204, "scale": 1.0, "original_dtype": "float32"}}, {"name": "StatefulPartitionedCall/model/rescaling/Cast/x", "shape": [], "dtype": "float32", "quantization": {"dtype": "uint16", "min": 0.007843137718737125, "scale": 1.0, "original_dtype": "float32"}}, {"name": "StatefulPartitionedCall/model/rescaling/Cast_1", "shape": [], "dtype": "float32", "quantization": {"dtype": "uint16", "min": -1.0, "scale": 1.0, "original_dtype": "float32"}}, {"name": "StatefulPartitionedCall/model/MobilenetV3small/tf.__operators__.add/y", "shape": [], "dtype": "float32", "quantization": {"dtype": "uint16", "min": 3.0, "scale": 1.0, "original_dtype": "float32"}}, {"name": "StatefulPartitionedCall/model/MobilenetV3small/expanded_conv/depthwise/pad/Pad/paddings", "shape": [4, 2], "dtype": "int32"}, {"name": "StatefulPartitionedCall/model/MobilenetV3small/expanded_conv_1/depthwise/pad/Pad/paddings", "shape": [4, 2], "dtype": "int32"}, {"name": "StatefulPartitionedCall/model/MobilenetV3small/tf.__operators__.add_2/y", "shape": [], "dtype": "float32", "quantization": {"dtype": "uint16", "min": 3.0, "scale": 1.0, "original_dtype": "float32"}}, {"name": "StatefulPartitionedCall/model/MobilenetV3small/expanded_conv_3/depthwise/pad/Pad/paddings", "shape": [4, 2], "dtype": "int32"}, {"name": "StatefulPartitionedCall/model/MobilenetV3small/tf.__operators__.add_3/y", "shape": [], "dtype": "float32", "quantization": {"dtype": "uint16", "min": 3.0, "scale": 1.0, "original_dtype": "float32"}}, {"name": "StatefulPartitionedCall/model/MobilenetV3small/tf.__operators__.add_5/y", "shape": [], "dtype": "float32", "quantization": {"dtype": "uint16", "min": 3.0, "scale": 1.0, "original_dtype": "float32"}}, {"name": "StatefulPartitionedCall/model/MobilenetV3small/tf.__operators__.add_6/y", "shape": [], "dtype": "float32", "quantization": {"dtype": "uint16", "min": 3.0, "scale": 1.0, "original_dtype": "float32"}}, {"name": "StatefulPartitionedCall/model/MobilenetV3small/tf.__operators__.add_8/y", "shape": [], "dtype": "float32", "quantization": {"dtype": "uint16", "min": 3.0, "scale": 1.0, "original_dtype": "float32"}}, {"name": "StatefulPartitionedCall/model/MobilenetV3small/tf.__operators__.add_9/y", "shape": [], "dtype": "float32", "quantization": {"dtype": "uint16", "min": 3.0, "scale": 1.0, "original_dtype": "float32"}}, {"name": "StatefulPartitionedCall/model/MobilenetV3small/tf.__operators__.add_11/y", "shape": [], "dtype": "float32", "quantization": {"dtype": "uint16", "min": 3.0, "scale": 1.0, "original_dtype": "float32"}}, {"name": "StatefulPartitionedCall/model/MobilenetV3small/tf.__operators__.add_12/y", "shape": [], "dtype": "float32", "quantization": {"dtype": "uint16", "min": 3.0, "scale": 1.0, "original_dtype": "float32"}}, {"name": "StatefulPartitionedCall/model/MobilenetV3small/tf.__operators__.add_14/y", "shape": [], "dtype": "float32", "quantization": {"dtype": "uint16", "min": 3.0, "scale": 1.0, "original_dtype": "float32"}}, {"name": "StatefulPartitionedCall/model/MobilenetV3small/tf.__operators__.add_15/y", "shape": [], "dtype": "float32", "quantization": {"dtype": "uint16", "min": 3.0, "scale": 1.0, "original_dtype": "float32"}}, {"name": "StatefulPartitionedCall/model/MobilenetV3small/tf.__operators__.add_17/y", "shape": [], "dtype": "float32", "quantization": {"dtype": "uint16", "min": 3.0, "scale": 1.0, "original_dtype": "float32"}}, {"name": "StatefulPartitionedCall/model/MobilenetV3small/expanded_conv_8/depthwise/pad/Pad/paddings", "shape": [4, 2], "dtype": "int32"}, {"name": "StatefulPartitionedCall/model/MobilenetV3small/tf.__operators__.add_18/y", "shape": [], "dtype": "float32", "quantization": {"dtype": "uint16", "min": 3.0, "scale": 1.0, "original_dtype": "float32"}}, {"name": "StatefulPartitionedCall/model/MobilenetV3small/tf.__operators__.add_20/y", "shape": [], "dtype": "float32", "quantization": {"dtype": "uint16", "min": 3.0, "scale": 1.0, "original_dtype": "float32"}}, {"name": "StatefulPartitionedCall/model/MobilenetV3small/tf.__operators__.add_21/y", "shape": [], "dtype": "float32", "quantization": {"dtype": "uint16", "min": 3.0, "scale": 1.0, "original_dtype": "float32"}}, {"name": "StatefulPartitionedCall/model/MobilenetV3small/tf.__operators__.add_23/y", "shape": [], "dtype": "float32", "quantization": {"dtype": "uint16", "min": 3.0, "scale": 1.0, "original_dtype": "float32"}}, {"name": "StatefulPartitionedCall/model/MobilenetV3small/tf.__operators__.add_24/y", "shape": [], "dtype": "float32", "quantization": {"dtype": "uint16", "min": 3.0, "scale": 1.0, "original_dtype": "float32"}}, {"name": "StatefulPartitionedCall/model/MobilenetV3small/tf.__operators__.add_26/y", "shape": [], "dtype": "float32", "quantization": {"dtype": "uint16", "min": 3.0, "scale": 1.0, "original_dtype": "float32"}}, {"name": "StatefulPartitionedCall/model/global_average_pooling2d/Mean/reduction_indices", "shape": [2], "dtype": "int32"}, {"name": "StatefulPartitionedCall/model/dense/MatMul/ReadVariableOp", "shape": [576, 1], "dtype": "float32", "quantization": {"dtype": "uint16", "min": -0.1518434275640015, "scale": 4.825328192576633e-06, "original_dtype": "float32"}}, {"name": "StatefulPartitionedCall/model/dense/BiasAdd/ReadVariableOp", "shape": [1], "dtype": "float32", "quantization": {"dtype": "uint16", "min": 0.030383730307221413, "scale": 1.0, "original_dtype": "float32"}}, {"name": "StatefulPartitionedCall/model/MobilenetV3small/Conv/Conv2D_weights", "shape": [3, 3, 3, 16], "dtype": "float32", "quantization": {"dtype": "uint16", "min": -1.9841442273084582, "scale": 6.264465719409144e-05, "original_dtype": "float32"}}, {"name": "StatefulPartitionedCall/model/MobilenetV3small/Conv/Conv2D_bn_offset", "shape": [16], "dtype": "float32", "quantization": {"dtype": "uint16", "min": -0.6306867165597142, "scale": 0.00023306974004424027, "original_dtype": "float32"}}, {"name": "StatefulPartitionedCall/model/MobilenetV3small/expanded_conv/depthwise/depthwise_weights", "shape": [3, 3, 16, 1], "dtype": "float32", "quantization": {"dtype": "uint16", "min": -44.89096831879573, "scale": 0.0014068434710832595, "original_dtype": "float32"}}, {"name": "StatefulPartitionedCall/model/MobilenetV3small/expanded_conv/depthwise/depthwise_bn_offset", "shape": [16], "dtype": "float32", "quantization": {"dtype": "uint16", "min": -23.895282530921033, "scale": 0.0006288563221990903, "original_dtype": "float32"}}, {"name": "StatefulPartitionedCall/model/MobilenetV3small/expanded_conv/project/Conv2D_weights", "shape": [1, 1, 16, 16], "dtype": "float32", "quantization": {"dtype": "uint16", "min": -2.2791600510031222, "scale": 7.177326565904967e-05, "original_dtype": "float32"}}, {"name": "StatefulPartitionedCall/model/MobilenetV3small/expanded_conv_9/project/Conv2D_weights", "shape": [1, 1, 576, 96], "dtype": "float32", "quantization": {"dtype": "uint16", "min": -12.761535691039882, "scale": 0.00039480063392649057, "original_dtype": "float32"}}, {"name": "StatefulPartitionedCall/model/MobilenetV3small/expanded_conv/project/Conv2D_bn_offset", "shape": [16], "dtype": "float32", "quantization": {"dtype": "uint16", "min": -52.15357774632777, "scale": 0.0012967720360616583, "original_dtype": "float32"}}, {"name": "StatefulPartitionedCall/model/MobilenetV3small/expanded_conv_1/expand/Conv2D_weights", "shape": [1, 1, 16, 72], "dtype": "float32", "quantization": {"dtype": "uint16", "min": -0.756275087200714, "scale": 2.324282645524353e-05, "original_dtype": "float32"}}, {"name": "StatefulPartitionedCall/model/MobilenetV3small/expanded_conv_1/expand/Conv2D_bn_offset", "shape": [72], "dtype": "float32", "quantization": {"dtype": "uint16", "min": -5.5260513946612955, "scale": 0.0005562205731918767, "original_dtype": "float32"}}, {"name": "StatefulPartitionedCall/model/MobilenetV3small/expanded_conv_9/project/Conv2D_bn_offset", "shape": [96], "dtype": "float32", "quantization": {"dtype": "uint16", "min": -6.156477326270672, "scale": 0.0002109393999270428, "original_dtype": "float32"}}, {"name": "StatefulPartitionedCall/model/MobilenetV3small/expanded_conv_1/depthwise/depthwise_weights", "shape": [3, 3, 72, 1], "dtype": "float32", "quantization": {"dtype": "uint16", "min": -13.46894128051022, "scale": 0.0004674118989627367, "original_dtype": "float32"}}, {"name": "StatefulPartitionedCall/model/MobilenetV3small/expanded_conv_1/depthwise/depthwise_bn_offset", "shape": [72], "dtype": "float32", "quantization": {"dtype": "uint16", "min": -55.09189678287309, "scale": 0.0014531902820519927, "original_dtype": "float32"}}, {"name": "StatefulPartitionedCall/model/MobilenetV3small/expanded_conv_1/project/Conv2D_weights", "shape": [1, 1, 72, 24], "dtype": "float32", "quantization": {"dtype": "uint16", "min": -2.400796846165813, "scale": 6.41238473869074e-05, "original_dtype": "float32"}}, {"name": "StatefulPartitionedCall/model/MobilenetV3small/expanded_conv_1/project/Conv2D_bn_offset", "shape": [24], "dtype": "float32", "quantization": {"dtype": "uint16", "min": -67.59339518862475, "scale": 0.002785748235601086, "original_dtype": "float32"}}, {"name": "StatefulPartitionedCall/model/MobilenetV3small/expanded_conv_2/expand/Conv2D_weights", "shape": [1, 1, 24, 88], "dtype": "float32", "quantization": {"dtype": "uint16", "min": -0.6078705127792027, "scale": 2.357732188267794e-05, "original_dtype": "float32"}}, {"name": "StatefulPartitionedCall/model/MobilenetV3small/expanded_conv_2/expand/Conv2D_bn_offset", "shape": [88], "dtype": "float32", "quantization": {"dtype": "uint16", "min": -4.369501281823266, "scale": 0.00020591429226311336, "original_dtype": "float32"}}, {"name": "StatefulPartitionedCall/model/MobilenetV3small/expanded_conv_10/expand/Conv2D_weights", "shape": [1, 1, 96, 576], "dtype": "float32", "quantization": {"dtype": "uint16", "min": -0.4161369394362905, "scale": 1.1750965448741719e-05, "original_dtype": "float32"}}, {"name": "StatefulPartitionedCall/model/MobilenetV3small/expanded_conv_2/depthwise/depthwise_weights", "shape": [3, 3, 88, 1], "dtype": "float32", "quantization": {"dtype": "uint16", "min": -12.257539972637232, "scale": 0.00027319722675100256, "original_dtype": "float32"}}, {"name": "StatefulPartitionedCall/model/MobilenetV3small/expanded_conv_2/depthwise/depthwise_bn_offset", "shape": [88], "dtype": "float32", "quantization": {"dtype": "uint16", "min": -27.421032626133922, "scale": 0.0009359033627814574, "original_dtype": "float32"}}, {"name": "StatefulPartitionedCall/model/MobilenetV3small/expanded_conv_2/project/Conv2D_weights", "shape": [1, 1, 88, 24], "dtype": "float32", "quantization": {"dtype": "uint16", "min": -2.390492186717677, "scale": 6.622595818699238e-05, "original_dtype": "float32"}}, {"name": "StatefulPartitionedCall/model/MobilenetV3small/expanded_conv_2/project/Conv2D_bn_offset", "shape": [24], "dtype": "float32", "quantization": {"dtype": "uint16", "min": -34.527771810926126, "scale": 0.0009578010988079038, "original_dtype": "float32"}}, {"name": "StatefulPartitionedCall/model/MobilenetV3small/expanded_conv_3/expand/Conv2D_weights", "shape": [1, 1, 24, 96], "dtype": "float32", "quantization": {"dtype": "uint16", "min": -0.41382892546996086, "scale": 1.2046018672351425e-05, "original_dtype": "float32"}}, {"name": "StatefulPartitionedCall/model/MobilenetV3small/expanded_conv_10/expand/Conv2D_bn_offset", "shape": [576], "dtype": "float32", "quantization": {"dtype": "uint16", "min": -20.82865150780102, "scale": 0.00036479414869084224, "original_dtype": "float32"}}, {"name": "StatefulPartitionedCall/model/MobilenetV3small/expanded_conv_3/expand/Conv2D_bn_offset", "shape": [96], "dtype": "float32", "quantization": {"dtype": "uint16", "min": -2.6209822242825873, "scale": 0.00017844377888634173, "original_dtype": "float32"}}, {"name": "StatefulPartitionedCall/model/MobilenetV3small/expanded_conv_3/depthwise/depthwise_weights", "shape": [5, 5, 96, 1], "dtype": "float32", "quantization": {"dtype": "uint16", "min": -25.42047485886499, "scale": 0.0006672215769144857, "original_dtype": "float32"}}, {"name": "StatefulPartitionedCall/model/MobilenetV3small/expanded_conv_3/depthwise/depthwise_bn_offset", "shape": [96], "dtype": "float32", "quantization": {"dtype": "uint16", "min": -3.091952227221898, "scale": 0.00024465518493605777, "original_dtype": "float32"}}, {"name": "StatefulPartitionedCall/model/MobilenetV3small/expanded_conv_3/project/Conv2D_weights", "shape": [1, 1, 96, 40], "dtype": "float32", "quantization": {"dtype": "uint16", "min": -4.805150973290249, "scale": 0.00014426416996788304, "original_dtype": "float32"}}, {"name": "StatefulPartitionedCall/model/MobilenetV3small/expanded_conv_3/project/Conv2D_bn_offset", "shape": [40], "dtype": "float32", "quantization": {"dtype": "uint16", "min": -21.072621729769203, "scale": 0.0008250830747756148, "original_dtype": "float32"}}, {"name": "StatefulPartitionedCall/model/MobilenetV3small/expanded_conv_4/expand/Conv2D_weights", "shape": [1, 1, 40, 240], "dtype": "float32", "quantization": {"dtype": "uint16", "min": -0.44399803309434427, "scale": 1.1952138287238728e-05, "original_dtype": "float32"}}, {"name": "StatefulPartitionedCall/model/MobilenetV3small/expanded_conv_4/expand/Conv2D_bn_offset", "shape": [240], "dtype": "float32", "quantization": {"dtype": "uint16", "min": -5.3040585588388405, "scale": 0.00017073516251975924, "original_dtype": "float32"}}, {"name": "StatefulPartitionedCall/model/MobilenetV3small/expanded_conv_4/depthwise/depthwise_weights", "shape": [5, 5, 240, 1], "dtype": "float32", "quantization": {"dtype": "uint16", "min": -94.65074598924004, "scale": 0.0027501161051003875, "original_dtype": "float32"}}, {"name": "StatefulPartitionedCall/model/MobilenetV3small/expanded_conv_4/depthwise/depthwise_bn_offset", "shape": [240], "dtype": "float32", "quantization": {"dtype": "uint16", "min": -5.676157771359595, "scale": 0.0001654181317059974, "original_dtype": "float32"}}, {"name": "StatefulPartitionedCall/model/MobilenetV3small/expanded_conv_10/depthwise/depthwise_weights", "shape": [5, 5, 576, 1], "dtype": "float32", "quantization": {"dtype": "uint16", "min": -105.13625785546489, "scale": 0.0023604377507344893, "original_dtype": "float32"}}, {"name": "StatefulPartitionedCall/model/MobilenetV3small/expanded_conv_10/depthwise/depthwise_bn_offset", "shape": [576], "dtype": "float32", "quantization": {"dtype": "uint16", "min": -20.303283658693047, "scale": 0.0005690701176829712, "original_dtype": "float32"}}, {"name": "StatefulPartitionedCall/model/MobilenetV3small/expanded_conv_4/project/Conv2D_weights", "shape": [1, 1, 240, 40], "dtype": "float32", "quantization": {"dtype": "uint16", "min": -16.813939476435195, "scale": 0.0005146441638283247, "original_dtype": "float32"}}, {"name": "StatefulPartitionedCall/model/MobilenetV3small/expanded_conv_4/project/Conv2D_bn_offset", "shape": [40], "dtype": "float32", "quantization": {"dtype": "uint16", "min": -12.000447669712822, "scale": 0.0002916765347619965, "original_dtype": "float32"}}, {"name": "StatefulPartitionedCall/model/MobilenetV3small/expanded_conv_5/expand/Conv2D_weights", "shape": [1, 1, 40, 240], "dtype": "float32", "quantization": {"dtype": "uint16", "min": -0.15625198101064222, "scale": 4.613694186395081e-06, "original_dtype": "float32"}}, {"name": "StatefulPartitionedCall/model/MobilenetV3small/expanded_conv_5/expand/Conv2D_bn_offset", "shape": [240], "dtype": "float32", "quantization": {"dtype": "uint16", "min": -2.18271942403157, "scale": 0.00010094433815990241, "original_dtype": "float32"}}, {"name": "StatefulPartitionedCall/model/MobilenetV3small/expanded_conv_5/depthwise/depthwise_weights", "shape": [5, 5, 240, 1], "dtype": "float32", "quantization": {"dtype": "uint16", "min": -59.72370975419005, "scale": 0.0017751667386217468, "original_dtype": "float32"}}, {"name": "StatefulPartitionedCall/model/MobilenetV3small/expanded_conv_5/depthwise/depthwise_bn_offset", "shape": [240], "dtype": "float32", "quantization": {"dtype": "uint16", "min": -14.349449150627953, "scale": 0.00032349909034939137, "original_dtype": "float32"}}, {"name": "StatefulPartitionedCall/model/MobilenetV3small/expanded_conv_5/project/Conv2D_weights", "shape": [1, 1, 240, 40], "dtype": "float32", "quantization": {"dtype": "uint16", "min": -30.985812025593336, "scale": 0.0009478682173629042, "original_dtype": "float32"}}, {"name": "StatefulPartitionedCall/model/MobilenetV3small/expanded_conv_5/project/Conv2D_bn_offset", "shape": [40], "dtype": "float32", "quantization": {"dtype": "uint16", "min": -36.35579333265704, "scale": 0.0008873976258306779, "original_dtype": "float32"}}, {"name": "StatefulPartitionedCall/model/MobilenetV3small/expanded_conv_6/expand/Conv2D_weights", "shape": [1, 1, 40, 120], "dtype": "float32", "quantization": {"dtype": "uint16", "min": -0.14548372189399442, "scale": 6.611994814070555e-06, "original_dtype": "float32"}}, {"name": "StatefulPartitionedCall/model/MobilenetV3small/expanded_conv_6/expand/Conv2D_bn_offset", "shape": [120], "dtype": "float32", "quantization": {"dtype": "uint16", "min": -1.3814381396423954, "scale": 0.00011297335129558353, "original_dtype": "float32"}}, {"name": "StatefulPartitionedCall/model/MobilenetV3small/expanded_conv_6/depthwise/depthwise_weights", "shape": [5, 5, 120, 1], "dtype": "float32", "quantization": {"dtype": "uint16", "min": -19.229275607022267, "scale": 0.0007134373022306336, "original_dtype": "float32"}}, {"name": "StatefulPartitionedCall/model/MobilenetV3small/expanded_conv_6/depthwise/depthwise_bn_offset", "shape": [120], "dtype": "float32", "quantization": {"dtype": "uint16", "min": -4.659123286413657, "scale": 0.0002102207862840616, "original_dtype": "float32"}}, {"name": "StatefulPartitionedCall/model/MobilenetV3small/expanded_conv_6/project/Conv2D_weights", "shape": [1, 1, 120, 48], "dtype": "float32", "quantization": {"dtype": "uint16", "min": -3.9133453107274914, "scale": 0.00015915024241439226, "original_dtype": "float32"}}, {"name": "StatefulPartitionedCall/model/MobilenetV3small/expanded_conv_6/project/Conv2D_bn_offset", "shape": [48], "dtype": "float32", "quantization": {"dtype": "uint16", "min": -56.553290049089505, "scale": 0.0012630550541393524, "original_dtype": "float32"}}, {"name": "StatefulPartitionedCall/model/MobilenetV3small/expanded_conv_7/expand/Conv2D_weights", "shape": [1, 1, 48, 144], "dtype": "float32", "quantization": {"dtype": "uint16", "min": -0.2487724303519361, "scale": 6.6843762353745895e-06, "original_dtype": "float32"}}, {"name": "StatefulPartitionedCall/model/MobilenetV3small/expanded_conv_7/expand/Conv2D_bn_offset", "shape": [144], "dtype": "float32", "quantization": {"dtype": "uint16", "min": -2.532061678650014, "scale": 0.0001312697225698592, "original_dtype": "float32"}}, {"name": "StatefulPartitionedCall/model/MobilenetV3small/expanded_conv_7/depthwise/depthwise_weights", "shape": [5, 5, 144, 1], "dtype": "float32", "quantization": {"dtype": "uint16", "min": -41.20328553196057, "scale": 0.001408514871362273, "original_dtype": "float32"}}, {"name": "StatefulPartitionedCall/model/MobilenetV3small/expanded_conv_7/depthwise/depthwise_bn_offset", "shape": [144], "dtype": "float32", "quantization": {"dtype": "uint16", "min": -5.906037608966171, "scale": 0.0002499063855188157, "original_dtype": "float32"}}, {"name": "StatefulPartitionedCall/model/MobilenetV3small/expanded_conv_7/project/Conv2D_weights", "shape": [1, 1, 144, 48], "dtype": "float32", "quantization": {"dtype": "uint16", "min": -18.13944344654812, "scale": 0.0005563563810130083, "original_dtype": "float32"}}, {"name": "StatefulPartitionedCall/model/MobilenetV3small/expanded_conv_10/project/Conv2D_weights", "shape": [1, 1, 576, 96], "dtype": "float32", "quantization": {"dtype": "uint16", "min": -4.715526773277114, "scale": 0.00013995152766893554, "original_dtype": "float32"}}, {"name": "StatefulPartitionedCall/model/MobilenetV3small/expanded_conv_7/project/Conv2D_bn_offset", "shape": [48], "dtype": "float32", "quantization": {"dtype": "uint16", "min": -6.059757116190709, "scale": 0.00018028552648431242, "original_dtype": "float32"}}, {"name": "StatefulPartitionedCall/model/MobilenetV3small/expanded_conv_8/expand/Conv2D_weights", "shape": [1, 1, 48, 288], "dtype": "float32", "quantization": {"dtype": "uint16", "min": -0.23883608498825784, "scale": 6.7839596940367505e-06, "original_dtype": "float32"}}, {"name": "StatefulPartitionedCall/model/MobilenetV3small/expanded_conv_8/expand/Conv2D_bn_offset", "shape": [288], "dtype": "float32", "quantization": {"dtype": "uint16", "min": -2.678962198660395, "scale": 0.00012275303329638908, "original_dtype": "float32"}}, {"name": "StatefulPartitionedCall/model/MobilenetV3small/expanded_conv_8/depthwise/depthwise_weights", "shape": [5, 5, 288, 1], "dtype": "float32", "quantization": {"dtype": "uint16", "min": -15.44444809516944, "scale": 0.00029437621452719793, "original_dtype": "float32"}}, {"name": "StatefulPartitionedCall/model/MobilenetV3small/expanded_conv_8/depthwise/depthwise_bn_offset", "shape": [288], "dtype": "float32", "quantization": {"dtype": "uint16", "min": -2.2455368038463295, "scale": 0.00018011845703427685, "original_dtype": "float32"}}, {"name": "StatefulPartitionedCall/model/MobilenetV3small/expanded_conv_10/project/Conv2D_bn_offset", "shape": [96], "dtype": "float32", "quantization": {"dtype": "uint16", "min": -4.0868519445701486, "scale": 0.0001294167625501171, "original_dtype": "float32"}}, {"name": "StatefulPartitionedCall/model/MobilenetV3small/expanded_conv_8/project/Conv2D_weights", "shape": [1, 1, 288, 96], "dtype": "float32", "quantization": {"dtype": "uint16", "min": -2.3849913875853126, "scale": 7.361766174600464e-05, "original_dtype": "float32"}}, {"name": "StatefulPartitionedCall/model/MobilenetV3small/Conv_1/Conv2D_weights", "shape": [1, 1, 96, 576], "dtype": "float32", "quantization": {"dtype": "uint16", "min": -0.4961163227951226, "scale": 1.3155396764826118e-05, "original_dtype": "float32"}}, {"name": "StatefulPartitionedCall/model/MobilenetV3small/expanded_conv_8/project/Conv2D_bn_offset", "shape": [96], "dtype": "float32", "quantization": {"dtype": "uint16", "min": -6.987299820683209, "scale": 0.0002605257203834157, "original_dtype": "float32"}}, {"name": "StatefulPartitionedCall/model/MobilenetV3small/expanded_conv_9/expand/Conv2D_weights", "shape": [1, 1, 96, 576], "dtype": "float32", "quantization": {"dtype": "uint16", "min": -0.2702723156526358, "scale": 7.414471514666845e-06, "original_dtype": "float32"}}, {"name": "StatefulPartitionedCall/model/MobilenetV3small/expanded_conv_9/expand/Conv2D_bn_offset", "shape": [576], "dtype": "float32", "quantization": {"dtype": "uint16", "min": -3.1858980617579946, "scale": 0.00011150420207748827, "original_dtype": "float32"}}, {"name": "StatefulPartitionedCall/model/MobilenetV3small/expanded_conv_9/depthwise/depthwise_weights", "shape": [5, 5, 576, 1], "dtype": "float32", "quantization": {"dtype": "uint16", "min": -67.39928234935925, "scale": 0.0021468158098219225, "original_dtype": "float32"}}, {"name": "StatefulPartitionedCall/model/MobilenetV3small/expanded_conv_9/depthwise/depthwise_bn_offset", "shape": [576], "dtype": "float32", "quantization": {"dtype": "uint16", "min": -10.35959231374538, "scale": 0.00029488464073739373, "original_dtype": "float32"}}, {"name": "StatefulPartitionedCall/model/MobilenetV3small/Conv_1/Conv2D_bn_offset", "shape": [576], "dtype": "float32", "quantization": {"dtype": "uint16", "min": -14.316297455619619, "scale": 0.00023369349921841984, "original_dtype": "float32"}}]}]}